dice_classifier.pth (torch, 884960 bytes, 8 tensors)

weight f4 [32, 1, 3, 3]
00000000: bff8 553e 4e31 cbbe 5bc2 91bd f625 e33e
00000010: 5e49 35be fc2a ee3c 0edc 1dbd ad68 5cbc
00000020: 7045 9f3b 0b42 0cbd a62c e53d bb69 a3be
00000030: f1bf 513e cd92 e53e fea1 c8be 3ba2 eebd
00000040: e774 673e 6272 123e abf1 1cbe f748 543e
00000050: 5458 afbe b021 82be e1ec 5c3e 9ab1 29be
00000060: 0dd5 223e b08b 553e 8112 4c3d cae2 b23e
00000070: 30b6 57be adac e23d dcf9 da3e 81e0 79be
00000080: 7700 40bd d542 93bd 4c95 acbe 7c32 afbe
00000090: 509d 3f3e 0edc 693e a379 3f3e b7da 9fbe
000000a0: 5ebf 0ebf 4f64 18bc b39a 593e 006e aa3c
000000b0: 9c16 903c 371a 9bbc 26ba c9bb 37eb 60bc
000000c0: f65d 97bd 25b9 ed3e 228d 5bbe 5917 323e
000000d0: 0341 613e 9a66 2cbf 72de a3bd 8bcf 7e3e
000000e0: 763c 4bbe 8ae4 833e 65aa c2bc e895 ccbe
000000f0: 1eea f2be 5d2e 9b3d 67d2 e53e 5129 37bd
00000100: a6a5 91be 3205 b4be eeda c93e b8c6 233e
00000110: 104b e4be 28cf ec3e 05fc 3abe c58e a83e
00000120: e487 9ebe fc53 cdbd 7284 aa3d 9211 abbe
00000130: c3d1 ee3e 2d69 ee3e 32e1 74bd e7b6 13be
00000140: 4155 aabd bddc 14be 8570 97be 5ed7 a4bd
00000150: c6ee 3ebe 60a3 8ebe 462a 123d 7462 dabc
00000160: 4c65 563f 693d ef3d 051d 283e 98e8 873e
00000170: 3295 bc3e b620 9d3c ff9b afbd 0986 87bd
00000180: e052 e1bc c5dd 35be 845b eebe c975 88bd
00000190: d240 27bc 7be9 013f fb7d 4dbe 28b2 98bc
000001a0: 6172 6339 0e87 9ebe 3b5a 073c b795 d53c
000001b0: 1fe7 bebe f582 bebe 9fe0 f0bb c8ce 6bbe
000001c0: f8dc 653e 2400 90bc 495f 153f d9e9 543e
000001d0: cce2 7dba 55c2 bcbe f7cd a83e 3e83 8abd
000001e0: da0f 903d 4a9c 503e 56b8 573e 4596 923e
000001f0: 0ef0 7dbe f351 cfbe 63c7 323c 7d5f be3e
00000200: 19f4 16be 929a 943d d7c3 a9be 052e abbe
00000210: df6a f1bb b7ea dabc a0ba b03e bb84 953e
00000220: 3fdb bd3e 6397 8abe d0aa 493e c155 57be
00000230: 1f70 abbe d163 9a3d cf94 2cbe 7c8c 8a3c
00000240: b3ba 483e 3a80 323e 4e01 98be 35ca 853e
00000250: 8030 87be 3c62 8cbe 3d62 f6bd decd 82be
00000260: f260 a4be c5d7 383e 034b 7abe 6d0c 463d
00000270: d198 6fbe ac4a c4be ccab 93bd 8ffb adbd
00000280: 46ac a73e 8c52 e53e 8472 6abd 6e30 09be
00000290: 91aa e2be 281c 6f3e c4fa a73e 588d cfbd
000002a0: 8ebd 73be 27f8 413e f91d 13bc 467a 6d3e
000002b0: 49b7 f6bd dbe5 273e ad98 74be 0b02 003e
000002c0: f70f 153e 11c8 5b3e 8c1c 81be 9cb5 5a3e
000002d0: 052f debc 6df2 73be bd66 cabb c1e0 9cbe
000002e0: d032 543e 832e a5be 864f 0dbe 8437 30be
000002f0: 088f e4bd ed7f 5e3e 5b5e 1a3e c597 053e
00000300: 0585 6d3e 148b 18bd 50bf 0b3d 2ffc 6e3e
00000310: b6bb 203d 5809 a23e a24d 00be c171 78bd
00000320: ea2e ec3e 3846 2f3d cb4c d0be 551b da3e
00000330: 9bd0 c2bc 645e 72bd f83b 8bbe 3982 64bd
00000340: 91dc 8fbe 3255 49be 7e97 193e 108b cc3e
00000350: ce74 5c3e 3897 db3d 1baa db3d cbc4 94be
00000360: 26b1 833e 3e94 bcbe d28a 293e e8c4 9f3e
00000370: 5534 60be 32b9 42bd b0c4 de3e 3c04 afbe
00000380: d636 4dbe 203a d03e 9abf ae3e ba58 80be
00000390: e227 b13e 7953 65be b2e2 0d3d bb22 4cbe
000003a0: c0a2 e8be 8e11 d3bc 4f41 aabd 3429 5dbe
000003b0: 54f1 cdbd a034 2cbc afec 54be 222d a13d
000003c0: 1597 983e 0177 133e ecc6 3ebe 892e 5d3c
000003d0: 2a5a 6bbe 0551 a5be 5a99 203e 0f64 aebe
000003e0: b122 a9be 86d3 e73d 2954 71be 74ee ab3d
000003f0: a00a 983b 9710 db3e bbb6 b83e 23b8 31be
0.2089567 -0.39686054 -0.071171485 0.443649 -0.17703769 0.02907323 -0.03853994 -0.013452691
0.0048605725 -0.03424267 0.11190157 -0.31916603 0.20483376 0.44838563 -0.3918609 -0.11652037
0.22603188 0.14301446 -0.15326564 0.20730959 -0.34247077 -0.25416327 0.21574737 -0.16571656
0.15901585 0.20854068 0.049822334 0.3493865 -0.21065593 0.110680915 0.42768753 -0.24402048
-0.046875443 -0.071904816 -0.33707654 -0.34218204 0.18712354 0.2283785 0.18698744 -0.31221554
-0.55760753 -0.009301259 0.2125042 0.020804405 0.017588906 -0.018933399 -0.006156224 -0.013727955
-0.073909685 0.46430317 -0.21440557 0.17391719 0.21997456 -0.6734406 -0.080014125 0.24883859
-0.19847283 0.257603 -0.023762891 -0.3995812 -0.47444242 0.075772025 0.44887087 -0.044717137
-0.28446692 -0.35160214 0.39424843 0.15993774 -0.44588518 0.46251798 -0.182602 0.32921425
-0.3096305 -0.100257844 0.08326043 -0.33411843 0.4664441 0.46564618 -0.059785075 -0.1442524
-0.08317042 -0.1453733 -0.29578033 -0.080488905 -0.18645772 -0.2785902 0.035684846 -0.026658274
0.83748317 0.11681635 0.1641732 0.26544642 0.36832577 0.019180637 -0.08574676 -0.06617362
-0.027505338 -0.1776038 -0.46554196 -0.06663091 -0.010208325 0.5074689 -0.20067589 -0.018639639
0.00021691016 -0.30962414 0.008261259 0.026072366 -0.37285706 -0.37209287 -0.0073509957 -0.230281
0.22447574 -0.017578192 0.5834852 0.20792331 -0.00096849794 -0.36867014 0.3296964 -0.06763314
0.070342734 0.2037212 0.21066412 0.28630272 -0.24798605 -0.4049221 0.010911795 0.37182227
-0.14741553 0.072560444 -0.33157226 -0.33433548 -0.0073674764 -0.026723249 0.34517384 0.29202828
0.37081334 -0.27068624 0.19694066 -0.21028806 -0.3348398 0.0753857 -0.16853641 0.016912691
0.1960247 0.17431727 -0.29688495 0.26130834 -0.2640419 -0.27418697 -0.12030456 -0.2554769
-0.32105213 0.1805106 -0.24442677 0.048351694 -0.23398139 -0.3833822 -0.07210502 -0.084952466
0.32748622 0.4478954 -0.057238117 -0.1339738 -0.44270757 0.23350585 0.32808506 -0.10134381
-0.23802778 0.18942319 -0.008979314 0.23191175 -0.120466776 0.16396277 -0.23886366 0.1250078
0.14556871 0.21463038 -0.25217092 0.21358341 -0.02712203 -0.23822947 -0.006176798 -0.30640224
0.20722508 -0.32262048 -0.13799867 -0.17208678 -0.111600935 0.21728487 0.15075056 0.13046177
0.23195274 -0.03724201 0.034117997 0.23338388 0.039241515 0.31647754 -0.12529615 -0.06065536
0.46129543 0.042791575 -0.40683588 0.42598978 -0.023781111 -0.05917205 -0.2719419 -0.055788253
-0.28097966 -0.19661406 0.14999196 0.39949846 0.21528932 0.10722202 0.107258044 -0.2905639
0.2572109 -0.3683185 0.16556862 0.31204915 -0.21894963 -0.047539897 0.43509436 -0.34182918
-0.2004045 0.40669346 0.34130555 -0.25067693 0.3460074 -0.22395124 0.03464002 -0.19935124
-0.45436668 -0.025765207 -0.08313238 -0.21597749 -0.10055795 -0.010510594 -0.20793413 0.078699365
0.29802766 0.14400865 -0.1863057 0.013499864 -0.22983614 -0.32288375 0.15683499 -0.34060714
-0.3303428 0.11319642 -0.23567261 0.08395091 0.0046399385 0.42786095 0.36076912 -0.17355399

bias f4 [32]
00000000: ce68 193c 323f 16be dee4 12bc fa8e 8f3e
00000010: c727 1f3c c168 11bc a4fc ee3d faf4 c2bd
00000020: 9e7a e9bb baa6 ccb8 b232 eebd ada4 66bd
00000030: 50b5 9ebb 9366 80bb a7e9 fc3a b568 223b
00000040: f90a b63e 1e39 213b bb3e 663e 486d a6be
00000050: af80 a13e f257 c7be da7f 05ba b5d5 a1bd
00000060: 2d46 99bb 4ff0 d43b 9d76 ec3d f11f 69be
00000070: c03e 81bc 395b a93b d4a0 483b 2832 6ebc
0.009363366 -0.14672545 -0.008965699 0.2803877 0.0097140735 -0.008875073 0.11669281 -0.09519382
-0.007125213 -9.758533e-05 -0.11630763 -0.05630939 -0.0048433915 -0.003918478 0.0019295708 0.0024781649
0.35555246 0.0024600695 0.22484867 -0.3250525 0.3154349 -0.38934284 -0.0005092599 -0.079020895
-0.004677555 0.0064983736 0.11546061 -0.22766091 -0.015776992 0.0051683453 0.003061344 -0.014538325

weight f4 [64, 32, 3, 3]
00000000: 2e5e 9abc fce9 5fbd a735 3a3c be2c 3b3c
00000010: 2fa8 1dbd e7d2 72bc a0c2 fdbc 6cfa 8e3c
00000020: 1705 cabb f4fe 02bc a4ad 3e3d c0d6 b43a
00000030: 80ec b73c c926 853a 2587 7d3c 11a4 78bd
00000040: e6b6 48bd 17b3 83bc 24cf 94bc 46ca 9e3c
00000050: ec98 0fbd 1e63 9fbd d333 963c 8ad1 8c3c
00000060: f5b7 bd3c 35ed 4ebd 8639 233b dd83 ac3c
00000070: 74c8 8dbd 97f4 64bd 024b f23c 9f70 3dbd
00000080: 9ac6 e2bc 7ab9 4dbd 71ca ad3c 7191 7bbc
00000090: fb18 91bc 8391 f13c 74b3 3bbc eb4e 213d
000000a0: d966 0b3d afbb 823c c946 193d 4a6e a33c
000000b0: fb74 babc 91ec 82bd 82fe 84bd e3e6 4dbd
000000c0: 447a 993c 54d8 ebbc 129e 093c 4356 44bd
000000d0: 8ca3 ce3c 0e48 9bbc f1d9 953c 84a6 5ebb
000000e0: 5fc6 2fbd 4f5b 283b bdf1 ecbb 4c84 af3c
000000f0: 44d7 df3b 5cdd 19bd 1b4b 2f3a 7bfb e33c
00000100: 076e 7ebd 5feb dc3c e328 94b8 e797 3abd
00000110: bcd9 97bc 4c9a 45bc 2d9c 50bd e325 e23c
00000120: d86f 393d 2ef0 07bd 1f26 23bd 6d89 21bd
00000130: af9b ccbd a22d fb3b d7d3 233c 1fb4 b6bc
00000140: 4220 4ebc b6fa d5bc 61e2 153d 4c80 0e3c
00000150: 0b4d bd3c a4a9 743c 9a9f 103d 5549 a43c
00000160: 7dc0 693c 2361 bfbc 0d84 063d 0441 5abc
00000170: dcc3 3f3c 04f1 52bc 5371 2d3b ea7b 5fbd
00000180: b32c 083d 1a64 86bb 21ae 203d a41b bebc
00000190: d8df d43b 480b e93b 329c 883c 6e1d 48bd
000001a0: 4886 35bd 09d9 353d bc7b aebc 33c3 f23c
000001b0: 6145 003d d5f0 0f3d b5b6 f6bc 661d f3bb
000001c0: b342 083d 5699 bebb 4b78 ae3d e801 7f3d
000001d0: 8da7 7ebc edcd 0cbd 8903 0c3d 2fea 0abd
000001e0: 34ff 0e3c 1fbd 2d3d 3870 5cbd 648e 48bd
000001f0: 1b99 62bd 8f92 7d3c bfc2 ac3c 4faa 70bc
00000200: 02f8 9abc 3bfa 1e3d 6324 273d 875e cd3c
00000210: 212e 983c 42c2 f13c bcc1 3cbd 0ee4 e5bc
00000220: e541 013d 402e 1abb fafd 313d 5459 3b3d
00000230: b91d 443c 7058 9cbc b287 c63c 4b98 d7bc
00000240: ca03 873c 792d 5cbd 763c 9c3a 6462 64b8
00000250: b4c6 b4bc c798 033c cc87 6dbd 0dfa cebc
00000260: c054 073d 24e0 003c e59e 18bd 7ba9 dcbc
00000270: 67cf 583c 261b 7cbd a9bd 45bb 3407 843c
00000280: 9d53 b5bc bc6e 0c3c 9f39 b93c 1756 82bd
00000290: 2464 a8bb 9a56 20bd 1a8c d3bc 8127 633c
000002a0: 78b6 a43c 76e2 c6bb c964 34bd 9de6 4ebd
000002b0: a54d 86bb d4c6 ca3b d820 7b3c 2dab d73b
000002c0: be33 a23b 1c8e 8fbd e602 8cbd ff55 75bd
000002d0: 93b7 99bc 0988 713c 8106 013d a289 0a3d
000002e0: d4d6 01bd f874 83bd 52a5 50bd 22db 35bd
000002f0: 39ac 5bbc 8f61 2b3d 2cf3 53bd 9d30 1dbd
00000300: 4be6 e93c e9d1 4f3c 359c a2bd d6a4 9f3c
00000310: 5f79 e13c ee3d f63c 5b15 17bd cd32 f6bc
00000320: a963 1c3d 8a4b a5bd 389f a1bd 5724 7fbd
00000330: 1ae9 51bd 7c89 133d cf18 2b3d a427 7ebd
00000340: a265 74bd d8cd 5b3c 9b51 0c3d a025 55bd
00000350: f56c 96bc d200 153d 6470 10bd 9bfb 63bd
00000360: b7d3 bbbb 356c 58bd 0f2c e6bc eefb 6a3c
00000370: 642d 313d 7534 0cbd b707 8d3c 0e32 7ebb
00000380: 873d a13c e419 fbbb c42a 0c3c 691a 2cbd
00000390: 9903 29bd 2038 e4bc 0f3d 213c 4f0d 21bd
000003a0: 7fbd 013d 267a 0ebb 180a 083d 4335 203c
000003b0: 589e 4dbc 13a7 25bc e90a 65bd 4032 343d
000003c0: 6f54 5dbd e6f3 03bd 9b1b d6bb 8481 e43c
000003d0: 6700 473d a238 b8bc 88fc f23c f18b 383b
000003e0: 45ea 43bd db39 1f3d be81 3ebd f949 dabb
000003f0: 7c27 8b3c ed7f c4bb 512e 15bd e254 503c
-0.018843736 -0.054666504 0.011365331 0.011424242 -0.03849047 -0.014820791 -0.030976593 0.017453395
-0.0061651575 -0.007995356 0.046552315 0.0013796911 0.02245164 0.0010158654 0.0154741155 -0.06070334
-0.04900255 -0.016076608 -0.018165179 0.01938356 -0.035057947 -0.07782577 0.018335259 0.01718976
0.023159007 -0.050519187 0.0024906113 0.021058971 -0.06922999 -0.05589732 0.029576782 -0.046249982
-0.027682591 -0.050225712 0.021214696 -0.0153545 -0.017712107 0.02948833 -0.011456359 0.039381903
0.03403363 0.015958635 0.03742102 0.01995005 -0.022760859 -0.06392778 -0.06493856 -0.05026902
0.018735059 -0.028789677 0.008399503 -0.047933828 0.02522447 -0.018955257 0.0182924 -0.0033973763
-0.04291379 0.002568919 -0.007230966 0.021425389 0.0068310816 -0.03756462 0.0006686912 0.027829876
-0.06211665 0.026967702 -7.064806e-05 -0.04555502 -0.018536441 -0.012060713 -0.05093019 0.027605956
0.045272678 -0.033188038 -0.039831277 -0.0394377 -0.09990632 0.007665352 0.009999237 -0.022302685
-0.012580933 -0.026120525 0.036592845 0.008697581 0.023108026 0.014933024 0.035308458 0.020054499
0.014267084 -0.023361748 0.032840777 -0.013321165 0.011704411 -0.012874845 0.0026465252 -0.054561533
0.033245753 -0.0041012885 0.039228562 -0.02320654 0.006496411 0.0071119405 0.016676042 -0.04885619
-0.044317514 0.044396434 -0.021299236 0.029634094 0.031316165 0.035141785 -0.030116418 -0.007419276
0.033266734 -0.005816619 0.08519038 0.062257677 -0.015542877 -0.034376074 0.03418306 -0.03391474
0.008727837 0.042416688 -0.053817958 -0.04896392 -0.055321794 0.015476837 0.021088956 -0.014689042
-0.018917087 0.038812857 0.040806185 0.025069488 0.018576683 0.029511575 -0.046083197 -0.028062847
0.031556983 -0.0023526102 0.0434551 0.045739487 0.011969977 -0.019085139 0.024234626 -0.026317736
0.016481299 -0.053754304 0.0011919874 -5.445107e-05 -0.022067405 0.00803203 -0.057990834 -0.025265718
0.03303981 0.007865939 -0.03726091 -0.026936283 0.013233042 -0.06154933 -0.003017286 0.016116716
-0.022134596 0.008571323 0.022610484 -0.063640766 -0.005138891 -0.03914509 -0.025823642 0.013864399
0.02010654 -0.0060694767 -0.04404143 -0.0505129 -0.0040986114 0.006188253 0.015327655 0.006581685
0.004950016 -0.07009527 -0.0683649 -0.059896465 -0.018764293 0.014741906 0.031500343 0.033822663
-0.031699017 -0.064187944 -0.05093891 -0.044398434 -0.01340776 0.041841086 -0.05174558 -0.03837644
0.028552195 0.012684324 -0.079399504 0.01948778 0.027523695 0.030058827 -0.0368856 -0.03005352
0.03818098 -0.080710486 -0.07891697 -0.062290516 -0.051247694 0.036019787 0.041771706 -0.062049523
-0.059667237 0.013415776 0.034257513 -0.052037835 -0.018362502 0.036377735 -0.035263434 -0.05565987
-0.0057320255 -0.05283757 -0.02809718 0.014342291 0.04325618 -0.034229714 0.017215593 -0.003878716
0.019682659 -0.0076629985 0.008555118 -0.042017374 -0.041263197 -0.027858794 0.009841218 -0.039319333
0.03167486 -0.0021740287 0.03321275 0.009778324 -0.012549959 -0.010110634 -0.055918608 0.043993235
-0.0540356 -0.03221502 -0.0065340525 0.02789379 0.048584368 -0.022487942 0.029661432 0.0028159583
-0.04783084 0.038873535 -0.04651045 -0.0066616503 0.016986601 -0.0059966953 -0.036421124 0.01271555

bias f4 [64]
00000000: a432 95bd 7242 ea3d c4d9 953d 64a8 8c3d
00000010: 0ecb a9bc 2a75 e53d b807 0a3e 5632 1e3e
00000020: cbcb 08be 945e b1bd f8ea 93bd 4bf9 f4bc
00000030: 8131 013e b407 a93d 6b60 7f3c 0689 ddbc
00000040: 3eca a23d a51e 01be beb3 423c abef 03be
00000050: 9e41 74bd fd53 7abd cd04 66bd 2ece fc3d
00000060: efde b53d a9ad d9bd 64b3 c23c d1ab b1bc
00000070: 440b 63be 56cc 11be 1cb4 253e 0f8d 27bd
00000080: ad72 1cbe c8a0 d13d 0eaa 273e 5e40 e9bc
00000090: 163e 0e3e 006b 3abc d6ac 623d d724 93bd
000000a0: 7d45 183e 8c7c d7bc 8271 4c3c e599 02bc
000000b0: 1b87 bdbb 6289 703d 3394 97bd 51b2 65bd
000000c0: 463a b6bd c8e3 18bd 6f48 033d af21 15bb
000000d0: 7ac4 93bc bc0d 223d 0fc1 91bd 140d de3c
000000e0: 3d34 82bd 71b4 f53d 0221 c5bd 3453 42bc
000000f0: 9fe0 503d 2b0f e43d 8a48 eabd 17e0 46bb
-0.072850496 0.11438455 0.07316926 0.068680555 -0.020726707 0.11203988 0.13479507 0.15448889
-0.13358991 -0.086606175 -0.07222551 -0.029904028 0.1261654 0.082534224 0.015586953 -0.027042877
0.07948731 -0.12609346 0.011883674 -0.12884395 -0.05963289 -0.061115254 -0.056156922 0.12344013
0.08880412 -0.10628826 0.02376718 -0.021688374 -0.22172266 -0.14238104 0.16181988 -0.04090601
-0.1527812 0.10235745 0.16373464 -0.028473075 0.13890871 -0.01137805 0.05534061 -0.07184761
0.14870258 -0.026304506 0.012478234 -0.007971262 -0.005783928 0.05872477 -0.07401314 -0.05607826
-0.088978335 -0.037326604 0.0320515 -0.0022755673 -0.018038023 0.03956388 -0.07116901 0.027105846
-0.0635762 0.11997307 -0.09625436 -0.0118606575 0.050995465 0.111357056 -0.11439617 -0.003034597

weight f4 [64, 3136]
00000000: ef63 30bc 2e5b bcbc 2886 373b 2919 273c
00000010: c044 d4bb 9353 383c 82a9 1bbb 3b19 d8bb
00000020: 13de 15bc de88 7aba f65e 8d3b 5353 83bb
00000030: 0088 273c cd61 0fbc 6166 80bc d59d 48bc
00000040: 9682 823c ca30 34bc 4f3d 0abc 5295 e83a
00000050: 0834 023c e8f9 89bb f2e2 2c3c 984d 6dbc
00000060: 669f 0dbc 17dc 12bb ea8c bdbc 4dc0 063b
00000070: ea7a eeba 3569 a9bc f7f5 e13a c2d3 a3bc
00000080: adf0 6dbc ef5f efbb ec7f b0bc c07c 3bbb
00000090: 6d17 8ab9 d351 1f3c bca0 c1bc bae6 183b
000000a0: aee7 083c f3fe b33b d6a7 a6bc a307 3a3c
000000b0: dcb0 9a3b 0f87 9f3b 5675 d53b 2e6a 62bc
000000c0: 57a8 413c b5e9 383b db8e 9abc d784 b7bc
000000d0: ab04 2bba f4da 11bc 3ded 813b ac3b 8fbb
000000e0: c9ba 3d3c b525 8bbc b26e 72bc 6122 50bc
000000f0: 430f 02bc c158 193c 5f92 86bb 3212 10bc
00000100: 13dc 533b ea52 9ebc 28e6 1bbb f8fc 36bc
00000110: b3e2 35bc 174d 55bb a249 f4bb 988e 83bc
00000120: 6d25 3cbc 6cfc 963c 6966 8abc 8e7f 073c
00000130: 2113 97bc 13ba 86bb 5467 2e3c b2e2 3b3c
00000140: 1c9c fabb a77c 5cbc 08f1 7dbc c455 49bb
00000150: 20fe 293c 80cc acbc 1f25 ef39 ef47 c139
00000160: f94a 12bc ab1f 783b c091 afb9 98fd 233c
00000170: 7d79 083b 53de a83b 7b21 a53a ad8b 86bc
00000180: 37cb 1fbc 9907 fe3b a1ba e23a ef94 a13b
00000190: f994 8fbc 1dc7 40ba 300c bdbc 9666 a43b
000001a0: a300 b4bc 6338 b0bc ec33 3bbc 781d 60bb
000001b0: d4c8 9d3b c7e8 823c 5eab 8f3c 9f6f b53c
000001c0: 982d b33b b449 7fbc 8080 113c cb16 823b
000001d0: a64f 08bc 36dc 40bc 8d9b b43b 463c 203c
000001e0: 3afa 303c 6366 92bc bb06 30bb 8d37 3bbb
000001f0: bcf2 8a3c 98d5 c23c 03c4 41bc 98e0 bdbc
00000200: 0135 a3bb c7c3 94ba 9c44 863c a1ce 313c
00000210: 03ef 6abc ef87 5abb 647a 9e3c c5d7 11bc
00000220: 2f80 873c ca05 993b d05f 8a3c 8684 63bc
00000230: 87ea b1bc a30e 1bbc 6952 9abc 13dc b83c
00000240: 61cf 843c 831d 20bc 46c2 723b 9453 813c
00000250: f60e 533c 54fb f7b9 7112 943b b984 81bb
00000260: 4162 7e3b eb7a a53c 4005 2c3b e011 3b3c
00000270: 7dab 8cbc c606 16bc 2d88 953c 7bae d6bb
00000280: 60b7 d73a 16ed 833b 82c1 e5bb d05f 6b3c
00000290: d02a 723b 82be 30bc 3daf e4bb dbf9 2f3c
000002a0: f30a 263c 75cf 8abc 8195 45b8 b980 bdbb
000002b0: 82af bdbc 5771 d13b 2333 bbbb e5b5 1c3c
000002c0: ede5 8b3a 5529 0f3c b67c 523c fded 023c
000002d0: 79ad 07bb 1bf1 87ba 6d30 e83a d22a 0fba
000002e0: 022a aabc e5c3 32bc f366 9abc a5ed babc
000002f0: d6b4 acbb 235e 67bc ce6d a6bc 289d b23b
00000300: 2871 243c 0f6f 2d3c 20e8 e03b 4193 42bc
00000310: 1615 90bc 7854 f8bb 03f6 48bc 266d 143c
00000320: 1c1f c63b 3a02 0cbc ce1b afbc 337b 44bc
00000330: c0af 2cba 8abf 1f3a 4cfa 3abc aeb6 4b3c
00000340: f1ff 8e3c 97e9 193c d818 90bc 503e 00bc
00000350: e3be 1fbc d0b7 5bbb b140 873c d07a 9d3b
00000360: 1b5c f53a 8dcb 8c3c db14 12bc cc50 3ebc
00000370: 963e 85bc 58f6 8ebb 33e3 83bc 60c9 da3a
00000380: a859 823b 1cfc 68bb 3028 14bc 1fb9 603c
00000390: c9c9 8f3c 9e9e 563c c8ea 8a3c 9c34 1d3c
000003a0: 6288 053c 0ce9 07ba 649e 4c3c 08b9 94ba
000003b0: 3822 243c 8f4c 29bc a21a 013b 4c69 c1bc
000003c0: 8cd7 aabc 3272 2cbc ea28 2c3c 8027 20bc
000003d0: 8c51 b2bb 6be3 6bbb 4041 b3bb e74f c33b
000003e0: 5415 4a3b c8f4 51bc f7f6 973b bed9 b13b
000003f0: cb40 32bc 89a9 8fbc a807 263c 71a7 ec3b
-0.0107660135 -0.022992697 0.0028003547 0.01019887 -0.006477922 0.011250394 -0.0023752158 -0.0065948046
-0.009147185 -0.0009557138 0.0043142987 -0.0040077358 0.010225296 -0.008751345 -0.015673818 -0.012244661
0.015931409 -0.01099796 -0.008437469 0.0017744696 0.0079469755 -0.0042106993 0.010552155 -0.014483832
-0.008643961 -0.0022409016 -0.023138482 0.0020561398 -0.001819459 -0.02068005 0.0017239441 -0.019998435
-0.014522714 -0.0073051373 -0.021545373 -0.0028608292 -0.00026338865 0.009724098 -0.023636214 0.0023330883
0.008356018 0.005493039 -0.020343702 0.01135436 0.0047207903 0.004868395 0.0065142317 -0.0138192605
0.0118199205 0.0028215472 -0.018866947 -0.02240221 -0.0006523828 -0.0089023 0.0039650486 -0.004371127
0.011580178 -0.016985754 -0.0147969 -0.012703509 -0.007938209 0.0093595395 -0.0041068043 -0.008793401
0.003232722 -0.019326646 -0.0023788307 -0.011168711 -0.011101413 -0.003254717 -0.007455067 -0.016059205
-0.011483532 0.018430911 -0.016894536 0.0082701575 -0.018441739 -0.0041115372 0.0106447525 0.011467623
-0.007648004 -0.013457454 -0.015499361 -0.0030721286 0.0103755295 -0.021093607 0.0004561329 0.00036865423
-0.008929008 0.0037860672 -0.00033487193 0.010009192 0.0020824366 0.0051534562 0.0012598479 -0.016424024
-0.00975304 0.0077523706 0.0017298051 0.0049310843 -0.01752709 -0.0007353889 -0.0230771 0.005017112
-0.02197296 -0.021511262 -0.011425953 -0.0034197252 0.0048152003 0.015980138 0.017537769 0.022147952
0.0054680817 -0.015581537 0.008880734 0.0039700023 -0.008319771 -0.011771252 0.005511707 0.009779995
0.010801846 -0.017871087 -0.002685948 -0.0028567046 0.016961448 0.02378349 -0.011826518 -0.023178384
-0.004980684 -0.001134985 0.016390137 0.010852487 -0.014339211 -0.0033345183 0.01934547 -0.008901541
0.016540615 0.0046698796 0.01689139 -0.0138865765 -0.021718277 -0.009463939 -0.018838124 0.022565877
0.016212167 -0.009772661 0.0037042066 0.015786923 0.012881985 -0.00047298765 0.0045188 -0.0039525894
0.0038815888 0.020200213 0.0026248246 0.011417836 -0.017171616 -0.009156888 0.01825341 -0.0065515614
0.0016457848 0.0040260656 -0.0070115933 0.014366105 0.0036951788 -0.010787608 -0.006978898 0.0107407225
0.010134446 -0.016944626 -4.7107696e-05 -0.005783167 -0.023154978 0.006391685 -0.005712883 0.009564851
0.0010673382 0.008737882 0.012847116 0.007991311 -0.0020702763 -0.0010371538 0.0017714627 -0.0005461398
-0.020771984 -0.010910963 -0.018847918 -0.022818396 -0.0052705808 -0.014121565 -0.02031603 0.0054508634
0.010036744 0.01058556 0.006863609 -0.011875928 -0.01758818 -0.007578429 -0.012265685 0.009059226
0.006046189 -0.008545453 -0.021375563 -0.011992264 -0.0006587468 0.000609391 -0.0114122145 0.012433691
0.017456027 0.009394071 -0.017589971 -0.007827356 -0.009750101 -0.0033526309 0.01651034 0.0048059
0.0018719466 0.017186904 -0.008916105 -0.011615943 -0.016265195 -0.0043628626 -0.016099548 0.0016692095
0.003977973 -0.003555066 -0.009042785 0.013716011 0.017552273 0.013099341 0.016957656 0.009595063
0.008150192 -0.0005184568 0.012488935 -0.0011346648 0.010017924 -0.010333194 0.0019699712 -0.02360978
-0.020854734 -0.010525273 0.010507802 -0.0097750425 -0.00544185 -0.0035993706 -0.005470425 0.005960453
0.0030835466 -0.012814708 0.004637595 0.005427568 -0.010879706 -0.017536895 0.010133661 0.007222109

bias f4 [64]
00000000: 3fda 77bc 19e2 51bb abf9 3f3c 8dc3 f7bb
00000010: 25fd 6e3d 2c5f c2bc b1b6 54bc f11d c6bb
00000020: 9eaf 8b39 69ea 2cbb 4ad8 ebbb ff4d bdbb
00000030: 70f8 a93d 8917 89bc 785b 42bc d2c2 4abd
00000040: 120a 90bc 14aa 49bc 579a 87bc 860c 43bc
00000050: 2826 8abb 2a9d 92bc eeba afbc 1b37 3ebc
00000060: 3e21 aebc 3728 923b 9df5 a33d 65ba ccb9
00000070: e75c 59bc 2d6f 09bc c6ff 133c c59c 9c3d
00000080: 676e 8dbc 31f0 97bc 4d8c 87bc cd7b 4d3d
00000090: 2827 5bbb c876 26bc cdfd c1bc 0b85 083c
000000a0: 6fa5 433b 3fbd b7bb c726 23ba fe76 993b
000000b0: 70e8 08bb 7cac 50bc 7278 b8bc 1ff9 53bc
000000c0: b870 c63b b692 d3bb 7a30 23bc 59d8 30bb
000000d0: c80b 8dbc f8fc babb 8b0e d0bc 304b cf3a
000000e0: cb77 f63a ac13 35bd e1c8 e53b 64fd 61bc
000000f0: db85 763b 2ede 45bb 9331 ddba 8cd6 3cbd
-0.0151277175 -0.0032025634 0.01171724 -0.0075611533 0.058346886 -0.023727022 -0.01298301 -0.0060460498
0.0002664299 -0.0026384837 -0.0071974145 -0.00577712 0.08299339 -0.016734855 -0.011862628 -0.0495022
-0.017582927 -0.012308616 -0.016553087 -0.011904841 -0.0042159744 -0.017897207 -0.02145144 -0.011609818
-0.021256085 0.0044603604 0.080058314 -0.00039048787 -0.013266779 -0.008388323 0.009033149 0.07647089
-0.017264558 -0.01854715 -0.016546393 0.050166894 -0.0033440087 -0.010160156 -0.023680592 0.008332501
0.0029853245 -0.0056072767 -0.0006223735 0.0046833744 -0.0020890497 -0.012736436 -0.02251837 -0.012937813
0.0060559176 -0.0064566983 -0.009960288 -0.0026984422 -0.017217532 -0.0057064258 -0.02539756 0.0015815254
0.0018804012 -0.044208214 0.007012472 -0.013793323 0.0037616405 -0.0030192244 -0.0016875736 -0.046103045

weight f4 [6, 64]
00000000: 10a7 76bd dcf2 74bd 55c4 c33b 6da2 ca3c
00000010: 54de 113f 5fa0 d5bb af26 52bd 763d 4dbc
00000020: 4d90 83bd cf84 f3bb d482 bf3d 6a3e 633d
00000030: bac6 393f 0f6e f8bd 3d0c ae3d cdc8 843e
00000040: 68c5 e63d 49bc bfbc cef1 eb3d b11f 613c
00000050: d516 e03d c5b4 4a3b 767c 94bb eff0 bd3d
00000060: 5e8b 8fbd 437c 353d 0e8b 86bf 57e4 bebd
00000070: 0ec6 75bc 873f 69bd 4361 883d c71f 8ebe
00000080: 613b d5bd aa12 ab3d df30 843d 4541 35bf
00000090: 979a f9bd bcc0 57bd d279 b33d 2d7d d73d
000000a0: 291b 3abc 20e9 793d 128b bfbd 2071 c63d
000000b0: e2db 11bd e1fc 873e 99e9 e23d c612 4c3d
000000c0: e11c d1bc d090 a73d a748 2f3d e16c 14bd
000000d0: ba48 6b3d 7538 91bc 26cc b2bd 8187 d23d
000000e0: 02b3 87bd 2b4e bebd 5af2 d5bd 1902 d8bd
000000f0: 3279 eabd 815a b83d afa8 eebd 390b bb3c
00000100: a9d0 093d 771d f23c 41a9 7dbd 04ef 46bd
00000110: 8dab 273e 6974 bf3d 051a cc3d 0d6d c9bd
00000120: e62b 353d c43e 193d a9d9 abbc a15d 143d
00000130: 46df 0cbf 0536 d0bd f948 343f 4424 a63e
00000140: 53bc 873d fc5c 5e3c ffed 893d 70d3 af3d
00000150: c7f9 f63b 769b 933d fb89 0d3d d7c2 92bc
00000160: 03ec e7bc 906e 89bd 62ea ccbe a324 4e3c
00000170: 6ed1 56bd 12a2 73bd 182a e3bd 9c8f 1cbf
00000180: d95b 063d 11b5 ee3d 4a91 ccbc 182e 17be
00000190: 5ea1 35bd 60e4 b93d 8c8b fcbd 4722 933d
000001a0: 17bb b83d d7bb afbd d876 e6bc 182e 5c3d
000001b0: 80aa e63c 2bf4 dc3e 4e77 733d e732 9bbc
000001c0: 8e73 e9bd 0323 533d 1578 993d aea2 d5bb
000001d0: 028b b7bd 32e6 48bd 0bbf 113d 2499 ecbd
000001e0: bb1a bd3c 1722 9bbd e96a 073c 514f 14bd
000001f0: 8a8d febb df4f f8bc ddfe 933d a4c2 c13c
00000200: 6329 ab3d 1c80 e13c 30f2 7c3d e6ae 85bd
00000210: 86d2 8c3e b4ad bbbd 2ed1 c93d 5715 92bc
00000220: cc58 123c 2580 a13d 4242 493c cbe8 dbbd
00000230: 9025 243f b9a1 e33d c6b9 d3bd 3d42 dbbd
00000240: c8f1 c5bd baff 673c 958e fcbb 80bc 77bc
00000250: 8a3c 9c3d 527f 1bbd 8e71 4cbd 6b35 673d
00000260: b3fc 79bc 9a12 b63d a789 e23c ecc2 3e3d
00000270: 6b9d 83bd d231 b93d edd3 5cbc 355c da3d
00000280: f248 b93c bb17 50bc 9a7a 2b3c 74d8 9abe
00000290: 936a 833d 0d87 d13c 8b2f 9c3d 6baf b5bc
000002a0: 13c4 40bd 2dfe 43bd d6b6 d03d b2f4 d9bd
000002b0: 1632 943d 794c 68bd 2f13 26bd 69a3 1f3c
000002c0: cf6f ac3c fdcf e83d abd1 9a3d c0cc 02bd
000002d0: 6aad c1bd f0db d5bd c68a 893d ddc8 973c
000002e0: e704 853d e062 28bb b8a5 d73d ff0e a03d
000002f0: e722 b33c 56f4 b1bd cefe cc3c ce11 9dbd
00000300: 712f 98bd 21ec b2bd 8db5 8dbc 07fc 7c3d
00000310: dee6 9fbe 9203 1abd 43c1 b5bd 1aee e8bc
00000320: c175 5fbc 1297 ed3d 6380 9d3d 0abe eabd
00000330: dbbd 8cbf c7f9 53bd d6ab a93e cbbb 863e
00000340: aeb1 b1bd 8825 b0bd 0f29 e73d ee6d eabd
00000350: 7a0c 7d3d 12c4 d03d 66d4 3c3d 7afb 3e3c
00000360: 88da e33c 5e5b a2bd c7fb 573d 24c4 7fbd
00000370: f27c cbbd f90b d8bd d668 653d a9c9 0f3c
00000380: f6e8 983d 447a e5bc c91e d33d be6e 9f3d
00000390: afb0 b83d 4d83 433d 8a1f bcbd cc80 b3bc
000003a0: 1114 8e3d eb5a c8bd 2aa2 64bd 2abf 593d
000003b0: f862 e03d bf36 b93d 4394 96bc 8fd6 073d
000003c0: 23ff 4bbd 161c d23d 27d0 6e3d f049 233d
000003d0: 1dec b3bd eaa2 1e3d df95 78bd 478d 253d
000003e0: 0eed 9ebd fd75 65bd 4a76 563d d6a9 f7ba
000003f0: 5575 323d 4ae0 80bd 18f9 d1bc 747f 0e3d
-0.060217917 -0.05980192 0.0059743323 0.024735654 0.5697987 -0.006519362 -0.051306423 -0.01252686
-0.064240076 -0.0074316035 0.09351125 0.055479445 0.7256886 -0.12130367 0.08498428 0.2593445
0.11268121 -0.023405211 0.1152073 0.013740466 0.10941855 0.00309305 -0.0045314385 0.0927447
-0.07009004 0.04430796 -1.0511186 -0.09320896 -0.015000833 -0.05694535 0.06659176 -0.2775862
-0.10411716 0.08353169 0.06454634 -0.7080272 -0.12187689 -0.05267404 0.0876347 0.10521922
-0.011359015 0.06101334 -0.093526974 0.09689546 -0.035610087 0.2656012 0.110797115 0.04982259
-0.025526466 0.08181918 0.042793896 -0.036236648 0.057442404 -0.017727116 -0.087303445 0.102797516
-0.0662594 -0.09292253 -0.104466155 -0.10547275 -0.114488974 0.09001637 -0.116532676 0.0228325
0.03364626 0.029555066 -0.06192899 -0.048567787 0.16374035 0.09348375 0.099659 -0.09835253
0.044231318 0.037413374 -0.020977812 0.036222104 -0.5502819 -0.101665534 0.7042385 0.32449543
0.06627717 0.013571974 0.06734847 0.085852504 0.0075371 0.07207386 0.034555417 -0.017915173
-0.028310781 -0.06710541 -0.4002257 0.012581977 -0.05244582 -0.059480734 -0.11092013 -0.6115663
0.032802437 0.116556294 -0.024971623 -0.14763677 -0.044343345 0.09076762 -0.12331304 0.07184272
0.090200596 -0.085807495 -0.028132841 0.053754896 0.028157473 0.43155035 0.05943995 -0.01894517
-0.113989934 0.05154706 0.07493607 -0.006519637 -0.089620605 -0.049047656 0.035582583 -0.11552647
0.023084035 -0.075748615 0.008265235 -0.036208455 -0.0077683376 -0.030311523 0.07226346 0.023652382
0.08357503 0.027526908 0.061754405 -0.065275 0.27504367 -0.091639906 0.09854351 -0.017832441
0.008932304 0.0788577 0.0122838635 -0.10737761 0.64119816 0.111148305 -0.10338168 -0.10705993
-0.09665257 0.014160091 -0.007707427 -0.0151206255 0.076287344 -0.03796322 -0.04991298 0.056447428
-0.015258002 0.08890267 0.027653528 0.04657261 -0.064265095 0.090427056 -0.013478261 0.10662118
0.02261779 -0.01270097 0.010466242 -0.30243266 0.06416812 0.025577093 0.076262556 -0.022178372
-0.04706199 -0.047849823 0.10191123 -0.10642375 0.07236116 -0.056713555 -0.04054564 0.00974355
0.021049408 0.113677956 0.07559522 -0.031933546 -0.09456904 -0.104423404 0.06715922 0.018528396
0.06495076 -0.00256937 0.10529655 0.0781536 0.021867229 -0.086891815 0.025023844 -0.076694116
-0.07430924 -0.08736444 -0.017298484 0.06176379 -0.31230825 -0.03760106 -0.08874752 -0.028433848
-0.013638915 0.1160108 0.076905034 -0.11462028 -1.0995439 -0.051751878 0.33138913 0.2631515
-0.08676468 -0.086009085 0.11287128 -0.11446749 0.061779477 0.101936474 0.046100996 0.011656636
0.027814165 -0.07927583 0.052730348 -0.062442914 -0.09935941 -0.105491586 0.056008182 0.008776107
0.07466309 -0.028012402 0.10308606 0.07784794 0.09018075 0.04773264 -0.09185703 -0.021912001
0.06937421 -0.09782966 -0.055818714 0.053160824 0.10956377 0.09043645 -0.018381244 0.033163603
-0.049803864 0.10259263 0.05830398 0.039865434 -0.087852694 0.038729586 -0.060689803 0.040417936
-0.07760058 -0.056020726 0.052358903 -0.001889522 0.043568928 -0.0629278 -0.025631472 0.034789518

bias f4 [6]
00000000: 051b f0bc e3e3 2abd aa64 d4bd 708c 643d
00000010: 4bbc ae3d 49c5 043e
-0.029309759 -0.041721236 -0.10370763 0.055797994 0.08532008 0.12965883
