dice_simple_classifier.pth (torch, 224116 bytes, 8 tensors)

conv_layers.0.weight f4 [16, 1, 3, 3]
00000000: 2834 683e d4da 35be a051 b93d c970 043e
00000010: 10fc 423e 9f2f 9cbe 518d 593e 07fd 8fbe
00000020: 7bd3 133e 0d85 493f 2f6f b0be 949c 923b
00000030: 2b7e 67bd 1eed 91be d4e2 02be 18b9 04bc
00000040: 3b19 29bc 9e8b 543d a5b2 9fbd 72d3 53be
00000050: cde5 b03d 35da 14bf e979 5abe 58e3 dabe
00000060: cc0f 32bf 62fb f6bc ab28 52be 56f7 863e
00000070: 2b85 973d 0b0c acbe 2181 b4bd 8a5b 7bbd
00000080: 90d2 f3bd 06ae e8bd 0226 9cbe b300 e1be
00000090: 6f53 1ebe a6a3 053c 086b 923c 49db 103f
000000a0: 5130 83be 8b1f 74be 5f07 eb3e 398f a0be
000000b0: 2e9e dcbd 1dcc c13d e8ae 273e 6194 1abc
000000c0: 3725 2dbe 14d1 31be aaab ef3b 14ed a43e
000000d0: a12e 2bbf 17e3 b53e 03ac fc3e bed3 2d3e
000000e0: 0ea6 fdbe 03fb 603e 6eb9 9c3e 3d76 ecbe
000000f0: 001b f4bd 3108 51be abb2 133e 0ed3 c5be
00000100: ba80 01bf ef83 7c3d 6b78 5abe 6c5c b23e
00000110: 3af0 213f 0595 07be 30de 3abd d930 fd3d
00000120: fcbf c7bd 998b 8ebe 40e4 34bf 4f94 103f
00000130: 309b 4b3e 6d5f 80bc eab0 8c3e 1cd0 a9bc
00000140: d0cf 0e3e 0c51 84be b2fa 67be a288 fbbd
00000150: fbc1 b83d b0f1 61be 1e9f a0be 5c5d 9b3d
00000160: ffd8 543d 35b9 2ebe 40ea 1abc 00e0 0cbd
00000170: db17 1e3e 56c5 e5bc 5e6e 9d3e bc18 0a3f
00000180: cf4f 413c 8f41 27bf 60d1 8bbe 2dd6 7a3e
00000190: a523 783d e5b7 95bc 13ad 10bf e656 0bbf
000001a0: 2611 503e d486 cfbd 5acf 723e 1ae7 fa3e
000001b0: ba5f d2bd 646a 893e d58e dcbc 3c83 fdbc
000001c0: 7400 963e 8c8b dfb6 341b 07bf 78de c03e
000001d0: 9b56 51be d07e f8be 9d42 9dbc 7b31 19be
000001e0: f1d0 b43e 86ed c9bc 2466 f2be 1f22 1f3e
000001f0: cbce 933e 44b2 b53e 3fd7 2a3f 0e1f 083d
00000200: 852c 5e3e e82a 373e 184c 08be d02e 13bf
00000210: 9a82 00bd 07b8 af3c ba48 c1be c73c 94bd
00000220: 005d 09bf 0c0d 54bd 2c71 3abe 8361 1b3e
00000230: 4700 87be fb17 af3e e398 243f e566 c2bd
0.22676146 -0.17759258 0.09048772 0.12933649 0.19041467 -0.30505082 0.21245314 -0.28122732
0.14436142 0.78718644 -0.34459826 0.004474232 -0.056516808 -0.2850122 -0.1278184 -0.00810077
-0.010320957 0.05189096 -0.077977456 -0.20686129 0.08637581 -0.5814546 -0.21335568 -0.42751575
-0.69555354 -0.030149166 -0.20523326 0.26360577 0.07398447 -0.33602938 -0.08813692 -0.061366595
-0.11905396 -0.11361317 -0.30497748 -0.43945846 -0.15461515 0.008156693 0.017873302 0.565846
-0.256228 -0.23840158 0.4590406 -0.3135927 -0.10772358 0.0946276 0.16375315 -0.00943479
-0.16908728 -0.17364913 0.007314165 0.32212126 -0.66868025 0.35524818 0.49349985 0.16975304
-0.49540752 0.21970753 0.30610222 -0.4618396 -0.11919212 -0.20413281 0.14423625 -0.38637584
-0.50587046 0.06164926 -0.21334998 0.34836137 0.6325718 -0.1324044 -0.04562205 0.123628326
-0.09753415 -0.2784088 -0.7066078 0.564763 0.19883418 -0.015670503 0.27478725 -0.020729117
0.13946462 -0.25843084 -0.22654226 -0.1228192 0.09021374 -0.22064853 -0.31371397 0.07586166
0.051964756 -0.17062838 -0.009455264 -0.03439331 0.15438788 -0.028048199 0.30748266 0.5394399
0.011798813 -0.6533441 -0.27308178 0.24495764 0.06058087 -0.018276164 -0.5651409 -0.5442947
0.20319042 -0.10133138 0.23711911 0.49004441 -0.10272165 0.26838982 -0.026923576 -0.030946366
0.2929722 -6.6621633e-06 -0.52775884 0.3766973 -0.20443194 -0.4853425 -0.019196803 -0.14960282
0.3531566 -0.024649393 -0.47343552 0.1554036 0.28868708 0.35487568 0.6673469 0.03323274
0.2169667 0.17887461 -0.13310277 -0.57493305 -0.03137455 0.021450056 -0.37750798 -0.07238155
-0.5365753 -0.051770255 -0.18207234 0.15173917 -0.263674 0.34197983 0.64295787 -0.09492282

conv_layers.0.bias f4 [16]
00000000: 9670 bebb 8895 853b b8c3 c23e 736b 9b3e
00000010: 0fd1 9839 f6fc 433d b2b5 32bd 8319 ce3b
00000020: fc99 bdbd 1983 60be 73d8 76bc c0f8 49bd
00000030: 82d1 a6ba be09 39be 30bb 7abd eaf9 643c
-0.005811761 0.0040766634 0.38039947 0.30355415 0.0002914746 0.047848664 -0.04363031 0.0062896623
-0.09257886 -0.2192501 -0.015066254 -0.049309492 -0.0012727233 -0.18070123 -0.061213672 0.0139756

conv_layers.3.weight f4 [32, 16, 3, 3]
00000000: 6076 2dbe d0ab 8b3d 5915 b0bd d2fe 0d3e
00000010: 474d aebd 5ecd d13c 6294 26be 8d77 3cbd
00000020: f1f9 30bd 5892 d9bd 387a 9f3e af03 4ebd
00000030: 64e8 303e f621 823e 6197 7d3e e5b8 5ebc
00000040: 75ed 993e cd93 c43e 6ec1 823e bcc9 dcbd
00000050: 2239 263e 8c51 a8be ffef 7bbe d1b9 223e
00000060: 46e0 b8bd 4e07 79be f982 223d 1b4a b3be
00000070: 86fe 17be e582 fb3c 00c6 9abe 3fd5 8ebd
00000080: 84e3 dbbd e0c1 a7bd a0a8 5fbe cd84 883d
00000090: b9de ec3d 84e1 3a3e fb2e c53e 4f26 9e3d
000000a0: 66a2 b03d 8707 a33e d30f 82bd 0295 433e
000000b0: f5a5 35bd dc7d 86bb 91f1 aebd e682 203b
000000c0: 6e17 2e3e 568f be3c 83d2 9f3d 6d27 52bd
000000d0: 20d2 6e3e 0d56 80be 2d7f a6be a1ed e93d
000000e0: 9d3a 75be c6bb 9b3e 1a24 b73d 9f85 223e
000000f0: f2dc 3dbe 1c80 8f3e 5b83 00be a662 d1bc
00000100: c0c3 58bd 1f64 14bd 63b7 81be 6935 c3bd
00000110: a00d 603d ed4b 213e 0fb3 42be 6367 4abd
00000120: 900a 103e 4f55 a63e 3662 9e3c 791e 883d
00000130: a887 d8bd 95ee b43d 594e c5be 369f 1abe
00000140: 38e6 b0be 3de8 9e3b c09a a4bd 4fd0 483d
00000150: cbea 053e 726b 3fbd 1ce7 b0bd ab5c c1bd
00000160: 7eb6 90bd 3e37 b6bc 4a5e 4a3c d1d9 42be
00000170: 194b 33be 651f 2a3d c3ef 20be c8d5 a7bd
00000180: 60f9 433e 1dcb 683d 178f 16be fd8c 9cbd
00000190: 1279 adbd 1d6c 2bbd 8b1d e63d 57be 9bbd
000001a0: 1591 e73d b5bd 873d e73c 14be 4314 febd
000001b0: 44a3 bfbb 24f5 16be de93 9cbe 3af0 973e
000001c0: b8fe 4ebe 9919 fdbe c687 283e 1e51 31bd
000001d0: 6eea b9bd 81d7 e3bd b542 98be fee7 54be
000001e0: 8bef 43be c946 163c 96a4 d8bd 9261 4c3e
000001f0: 39ad 9a3b 5c25 353c 63d3 1bbf a6ac e5bc
00000200: 63f6 31be b29a 8a3d c3ee 3c3d 17fc 35bd
00000210: 600d fdbd 4f15 0e3e 13db cebd 11db fd3d
00000220: 0d14 393e 0786 c5bc d1e6 c33d 4106 81bd
00000230: c3ca 34be 9672 eabc 7475 55be 64fc ffbc
00000240: 248d 43bd 8baf a33b 31c2 7c3c 0657 18be
00000250: 1942 913d 0cf4 503d 8332 2c3e 5694 09be
00000260: f1cb 6c3d c94b 3a3e 968a ad3e fa9c 953e
00000270: ab6b 07bf 90da 44be 7e4e afbe 1919 e73d
00000280: d5bc df3e 57a9 463e 7863 8dbd e420 be3d
00000290: 7d1a 1a3c dc80 263c baec 23be a309 96bc
000002a0: dd63 023d 4ccc 08be 0eed 92bd 8b9e fc3d
000002b0: 6919 993d 04d1 333d 2072 8fbe 91fd 0bbf
000002c0: 240c e5be e14a 92be 2bf9 81be 763b 9dbe
000002d0: 2dbe b1be e2c6 cfbe 6cb7 a7bd 9256 11bd
000002e0: 0ba8 8f3e 49d8 183e 2f04 6a3e 34c5 153d
000002f0: 32be 013e 5437 97be 510d adbe 680b a3bd
00000300: 6506 23be a5a9 023f 1989 943d 6985 72be
00000310: d932 e0bc 117b 913e 5a53 1abc 5e8a ba3e
00000320: 3be8 213e 9cb0 8fbe c9da 5fbe 770c 83be
00000330: 723e 0c3f 634b d0bb 0910 393e 1d7b 213e
00000340: 482f 82bd c15c 043e 5363 04bf d5ef 2dbd
00000350: c114 d9be 0489 e0bd acad c53d c0ac b43b
00000360: 1a20 553e cabf 813e 9131 273e c656 f1be
00000370: 93db 9bbe 443c b83d 1655 143e 3784 593d
00000380: 588b 63be dd39 0c3c 0921 6b3a 1209 bf3d
00000390: 1be2 063d d5bc c6ba 6060 12bc f163 77bd
000003a0: c72b 85bd f338 a2bc 72a7 83be 85f4 013d
000003b0: b9d9 d5bc f758 99bc 16b5 a23e 393e 05be
000003c0: 8f69 4cbd cff4 a03c 6608 e23c 82d8 8abe
000003d0: 7f0e aabe 8d07 8dbe b511 dbbe 58f5 883e
000003e0: f51f 423e fc7f ce3d ff53 cbbe 0dc9 3d3e
000003f0: 1310 15be bfd1 09be 117b 90be 4821 ffbc
-0.16939688 0.0681988 -0.08597822 0.13866737 -0.08510833 0.025610622 -0.16267541 -0.04601245
-0.043207113 -0.10623616 0.31147933 -0.05029648 0.1727615 0.25416535 0.24764778 -0.013593887
0.30063978 0.38394013 0.255382 -0.10780665 0.16232732 -0.32874715 -0.2460327 0.15891196
-0.09027152 -0.24319193 0.039675687 -0.35017475 -0.14843187 0.030702064 -0.30229187 -0.06974267
-0.107367545 -0.081912756 -0.21841669 0.06665955 0.115659185 0.1825009 0.38512406 0.077221505
0.08624725 0.3184168 -0.063506745 0.1909981 -0.044347722 -0.004104359 -0.08542169 0.0024492084
0.17001125 0.023261707 0.07803824 -0.05130713 0.23322344 -0.25065652 -0.32518902 0.11422277
-0.2394814 0.30416697 0.08942433 0.15871285 -0.18541315 0.28027427 -0.12550108 -0.025559735
-0.052921057 -0.036228295 -0.25335225 -0.095316716 0.054700494 0.1575162 -0.19013618 -0.049415004
0.1406653 0.3248696 0.01933394 0.06646437 -0.105727494 0.088345684 -0.38536337 -0.15099797
-0.34550643 0.0048494623 -0.08037329 0.049026784 0.13077848 -0.046733327 -0.086378306 -0.09441503
-0.070660576 -0.022243138 0.012351582 -0.19028403 -0.17509116 0.041533846 -0.15716462 -0.081950724
0.19138098 0.05683433 -0.14703022 -0.07644079 -0.08470358 -0.04185115 0.112361036 -0.07604664
0.11306969 0.066279806 -0.14476357 -0.12406208 -0.00584832 -0.14741951 -0.30581564 0.29675466
-0.20214355 -0.49433592 0.16458043 -0.04329025 -0.09077917 -0.111250885 -0.29738393 -0.20791623
-0.19134347 0.00917215 -0.10578267 0.19959095 0.004720357 0.01105627 -0.60869426 -0.028036427
-0.17379145 0.06767787 0.04612614 -0.044429865 -0.12356067 0.13875316 -0.10100379 0.12395299
0.18074055 -0.02411176 0.09565509 -0.06300021 -0.17655472 -0.028619092 -0.20845586 -0.031248279
-0.047742024 0.0049952916 0.015427158 -0.14876947 0.07092685 0.05101399 0.16816144 -0.13435492
0.05781168 0.18192972 0.33894795 0.29221326 -0.52898663 -0.19224 -0.34239572 0.11284084
0.43698755 0.19400536 -0.06903738 0.09283617 0.009405729 0.010162558 -0.16008273 -0.018315142
0.03183352 -0.13359183 -0.07174121 0.12334927 0.0747555 0.043900505 -0.28016758 -0.54683787
-0.44735825 -0.28572753 -0.25385413 -0.30709428 -0.34715405 -0.40581423 -0.08189282 -0.03548295
0.28057894 0.14926256 0.22853158 0.03656502 0.1267021 -0.295344 -0.33799222 -0.0796116
-0.15920408 0.51040107 0.07252712 -0.23683704 -0.027367996 0.28414205 -0.009419287 0.3643369
0.15811245 -0.2806443 -0.21860804 -0.25595447 0.54782784 -0.006356643 0.18072523 0.1576962
-0.063566744 0.12926008 -0.51714057 -0.04246505 -0.42398646 -0.10963634 0.09652266 0.0055137575
0.20813027 0.25341636 0.16327502 -0.47136515 -0.3044096 0.0899587 0.14485583 0.053104606
-0.22221124 0.008558718 0.0008969461 0.09327902 0.032930475 -0.0015162478 -0.00893411 -0.060398046
-0.065024905 -0.019802546 -0.25713688 0.031727333 -0.026104795 -0.01871918 0.31778783 -0.13012017
-0.049905356 0.019647984 0.027591895 -0.27118307 -0.33214185 -0.27544823 -0.42786947 0.26749682
0.18957503 0.10083005 -0.3971252 0.18533726 -0.14556913 -0.13458918 -0.28218892 -0.0311438

conv_layers.3.bias f4 [32]
00000000: 9ea0 83be 6206 97bd 8b1f a8bd 378f f7bd
00000010: 2df1 abbd 49f6 2c3c ce37 50bd 841d cebd
00000020: b413 79bd 055b d0be ac70 14be 279a 0bbd
00000030: 82e8 0bbf 15bc b9bd 08a2 d9bd 4e6b c5bd
00000040: 5774 33bc 95fc 7bbd a321 0cbd 0495 80bd
00000050: 9299 acbd dbd4 66bd b080 21bd 2d5e 00be
00000060: a830 b7bb 5e81 4e3c 96a4 ad3b 24fd 93be
00000070: 1666 bfbd 63ef c2be 677a 79bd ecac b9bd
-0.2570848 -0.07374264 -0.08209141 -0.12087863 -0.0839561 0.010556766 -0.05083447 -0.100642234
-0.060809806 -0.40694442 -0.14496106 -0.034082558 -0.54651654 -0.09069077 -0.10626608 -0.09639607
-0.010953031 -0.061520178 -0.034211766 -0.062784225 -0.08427729 -0.05635534 -0.039429367 -0.12535925
-0.005590517 0.012604086 0.005299161 -0.28904068 -0.09345643 -0.38073263 -0.060907748 -0.09066185

fc_layers.1.weight f4 [32, 1568]
00000000: c463 ab3e 53b7 43bd ec28 09be f96b edbd
00000010: 9e51 0fbd fd74 03bd 4872 053d ee36 6dbe
00000020: 8cc8 9d3d 96cd 84bd 52c5 d83d 53d5 463d
00000030: 826e 323d 460a febc d24a 82bd 827f 0f3e
00000040: 7383 20be 4f4d 63bc 4807 2abe 21df 853d
00000050: c00b a9bc 257a b5bc fb92 4d3c 914f e2bd
00000060: 307b 88be d985 0dbe 9696 d83d a539 0c3a
00000070: 0886 2b3c d391 193c 44de 313d bf0d 49be
00000080: c4de 80bd 6cb8 1a3e 8031 e0bc 1e85 39bd
00000090: 6222 ae3c 012b d1bb 0c53 e73d 2ebc ec3d
000000a0: 86ab b5bd 5bbe 8bba 9ce3 9d3d a537 9abd
000000b0: d080 58bc b3e2 c13d 1371 a43d 3183 e1bc
000000c0: 2d6c a83d 7ad0 a33e 4f7d 543e 7bba fc3d
000000d0: bd55 f63d b225 173e 2b78 233e c4f5 153e
000000e0: 54ae 013d 2585 2f3c dca3 813d 493c 843d
000000f0: aa11 c5bc 3e81 923d 05ba 2a3d 2999 513e
00000100: 0f97 03bd 0c6f 583e 309a 843c 13f7 043e
00000110: eaa5 013d 65a4 0d3c ae15 193d 1955 73bc
00000120: f7e0 853d 1e70 fa3d 3df7 833d 4637 a63d
00000130: 15c7 b13d d5d2 2abd 38aa bebc 01a1 0a3e
00000140: b5fd 3a3e a22e 373d f7d6 48bb 81df 713c
00000150: cd7a 23bd 864e 5abb bde7 f53c 0293 a0bd
00000160: 1391 8d3b 993b 133d 3c41 d83d ffce 843e
00000170: 422c 0d3d cbd9 6f3d 36e5 fb3d a1f0 733c
00000180: 7c4e d13d eb14 be3d fa66 81bc 802e 733c
00000190: 6b7f a9bc d8bd 69bb 4470 c03c 066d c03c
000001a0: b421 013c 5cc5 3b3d 507c ea3b 20ee 4cba
000001b0: 7007 d13b ec60 273c 18d9 0abc 3e4e acbc
000001c0: 9f91 ee3c 701b 5c3c ef16 ca3c 0066 063c
000001d0: 92a7 82bc de53 a53a 0090 0db7 f008 383c
000001e0: ec37 b23c a5b3 c23c 18c2 bcbb ad0d 093d
000001f0: d0a1 273c c9a3 a2bc 4862 963c d898 ceba
00000200: 32e2 143d 6532 2fbc 669a 4e3d 5c71 9fbb
00000210: fced a23b bc69 bc3c 7562 51bc a7db 73bb
00000220: c2b8 163d ad05 5b3d 7c8b 003c 941a 61bc
00000230: 23e9 ff3c 304a 553d 8a2e 06bc 3c91 393c
00000240: 7d44 30bc 758b 3b3d edd2 0f3c a68d 873c
00000250: c423 3a3c a03c 7a3a b98f 52bc 92c1 30bc
00000260: 20a7 bbba 1094 85bc b868 603c 1095 1b3b
00000270: 6cbe b13c fc57 c5bc b872 c5bc 9067 373c
00000280: b6d0 aebc 5dac 4abc c053 7b3b a6fd 9c3c
00000290: 097c 96bc c6ea 833c 9b88 a9bc 34f8 583c
000002a0: 3ee7 b93c a084 fd3b 2679 943c ca0b a33c
000002b0: e0d9 cd3c 3453 90bc 94c8 543c 9043 d3bb
000002c0: e0b8 8a3c bafa 94bc 4003 deb9 da28 ca3c
000002d0: 68c6 06bb 3017 d9bb f07c c43c 60e5 a8ba
000002e0: 67a4 78bc 1cde cb3c b880 ee3b 1ddd adbc
000002f0: 3747 6cbc f8fc 6dbb 2a63 6abc 4032 d53b
00000300: 5c17 dcbb ba02 8dbc 80b7 c23b 45b4 aebc
00000310: af7a 48bb 0712 8cbc 83c6 433b ee59 64bc
00000320: d361 53b9 a141 03bd 7164 1b3c e685 993a
00000330: c197 043b 5692 843c 27ff 26bc 7816 94bc
00000340: 8dad c0bc f695 9fbc e16e abbc 931f 82bc
00000350: bb9f 15ba 4efa 0d3c 06a1 a33c d3b3 a9bb
00000360: abe0 dcb9 4ece fa3b 96e7 91bb 9d89 823c
00000370: 3956 da3c fd5f 31bb 0338 b3bb 6c38 5ebc
00000380: 5215 a53c f52b 85bc d9eb 95bc 348d 79bc
00000390: 1ad0 e2bb 00c8 4dbb f9b5 0fbd 485b e13b
000003a0: 287d 94bb 4d69 b2bc ebbe 093c a2b7 9e3c
000003b0: 3238 8bbc 3b30 b9bc ae89 01bc 1e40 a33c
000003c0: be3c 65bc 8ab6 c13b 422a 59bb 3a7c 36bc
000003d0: 70db e3bc b310 cd3b ef99 e7bb aa14 ca3b
000003e0: 9589 22bc b402 bdbc 2236 94bc 69e3 55bc
000003f0: 846f a73a dc35 f73a c02b 7dbc 4d30 d8bc
0.33474553 -0.047782253 -0.13394517 -0.1159286 -0.034989946 -0.03209399 0.03257969 -0.23165485
0.07704267 -0.06484525 0.10584511 0.048543286 0.04356242 -0.031010758 -0.06361927 0.14013484
-0.15675144 -0.013873412 -0.1660434 0.06536699 -0.020635486 -0.02215297 0.01254725 -0.11050332
-0.26656485 -0.1382059 0.10575597 0.0005349166 0.010468967 0.009373146 0.04342486 -0.1963415
-0.06292489 0.15109414 -0.027367353 -0.045292966 0.02125663 -0.0063833003 0.11295137 0.1155933
-0.08870606 -0.0010661589 0.07709429 -0.075301446 -0.013214305 0.094670676 0.0802938 -0.027528377
0.08223758 0.31994992 0.20750926 0.12340256 0.12028072 0.14760473 0.15963809 0.14644533
0.031660393 0.0107128965 0.06330082 0.06456811 -0.024056274 0.07153557 0.04168131 0.20468582
-0.032126483 0.21136111 0.016186804 0.12984876 0.03165237 0.008645152 0.03737419 -0.014851832
0.06537049 0.12228416 0.06443641 0.08116011 0.0868055 -0.04170497 -0.023274526 0.1353798
0.18260844 0.044722207 -0.0030645707 0.01476276 -0.039912034 -0.0033310964 0.030017728 -0.078405395
0.0043202727 0.03594551 0.105593175 0.25939175 0.034466036 0.058557313 0.12299578 0.014888913
0.10220048 0.092813335 -0.015796173 0.014842629 -0.02069064 -0.0035666134 0.023491032 0.023489486
0.007881571 0.045842513 0.0071559325 -0.0007817466 0.0063790604 0.010215979 -0.008474611 -0.021033403
0.029122172 0.013434276 0.024669139 0.00820303 -0.015949044 0.0012613495 -8.4377825e-06 0.0112326
0.021755181 0.023767302 -0.0057604425 0.033460308 0.01023145 -0.01985349 0.018357411 -0.0015762104
0.03634853 -0.010693167 0.050440215 -0.0048658084 0.0049722176 0.022999637 -0.012779822 -0.003720978
0.036797293 0.05347221 0.007845756 -0.013739247 0.031239098 0.052072704 -0.008189807 0.0113261305
-0.010758516 0.045787293 0.008778316 0.016547035 0.011361066 0.0009545777 -0.012851649 -0.010788338
-0.0014316775 -0.016305953 0.013696842 0.0023739971 0.021697246 -0.024089806 -0.024102554 0.011194125
-0.021339756 -0.012370196 0.003834948 0.019163918 -0.018369691 0.01610316 -0.020695021 0.01324277
0.022693273 0.0077367574 0.018124174 0.019903082 0.025128305 -0.0176178 0.012987275 -0.006447263
0.016933858 -0.018185962 -0.0004234556 0.024677683 -0.0020565037 -0.0066250786 0.023985356 -0.0012885742
-0.015175915 0.024886183 0.007278528 -0.0212236 -0.014421276 -0.0036314111 -0.014305869 0.0065062344
-0.006716652 -0.017213214 0.005942285 -0.021326194 -0.0030590703 -0.01709844 0.002987296 -0.0139374565
-0.0002015897 -0.03204501 0.009484396 0.0011712878 0.0020232054 0.01618306 -0.010192669 -0.01807712
-0.023520255 -0.019480687 -0.020926895 -0.015884196 -0.00057077006 0.008665634 0.019974243 -0.0051789074
-0.0004212906 0.007653988 -0.004452656 0.01593476 0.026652442 -0.002706527 -0.0054693236 -0.013563257
0.020151768 -0.016256312 -0.018300937 -0.015231419 -0.0069217803 -0.0031399727 -0.035085652 0.0068773367
-0.0045315214 -0.021778727 0.008407335 0.019374672 -0.01699457 -0.022606006 -0.007906361 0.019928034
-0.013991533 0.005911653 -0.003313676 -0.011138016 -0.027814597 0.006258094 -0.007067911 0.006167014
-0.009920497 -0.023072578 -0.018092219 -0.013054707 0.0012774323 0.0018860656 -0.015452325 -0.02639022

fc_layers.1.bias f4 [32]
00000000: ee6a fbbc 187e a13b 12f6 dbbc 1148 0abd
00000010: ea6f ef3b b8f3 f6bc 725c 943e 1d9c 96bc
00000020: 0558 83ba 4bdd 3abd cf49 4dbe 0d5d 0bbc
00000030: 7a25 95bc 01ed 12be 1764 93bc e42b 0a3e
00000040: 504f 173c f112 6c3a 2e7e 99bd 1e0c 853e
00000050: 5aa3 913b b9ae c6bc 31fa 903e 83c1 19bd
00000060: 6ec8 b8bc c873 5a3e 8ec3 72bd 370f b7bc
00000070: 1a5e 54bc 4140 383e dbd2 253e d4d5 ffbc
-0.030690636 0.0049283616 -0.026850734 -0.033760134 0.0073070424 -0.030145511 0.2897678 -0.018384987
-0.0010020739 -0.045621198 -0.20047687 -0.008506072 -0.018206347 -0.14348222 -0.017992062 0.13493305
0.009235218 0.0009005508 -0.0749477 0.25985807 0.004444522 -0.024253236 0.2831588 -0.037538063
-0.02255651 0.2133323 -0.059268527 -0.022346122 -0.012961889 0.17993261 0.16193716 -0.03122989

fc_layers.4.weight f4 [2, 32]
00000000: ba4a 95be 7237 12bc 1df4 a2bc 0be4 8bbd
00000010: 2bd3 14bc fa64 23bd eda7 e13d 03a8 bf3d
00000020: b345 873d f19e 403d ca16 84be 0e8f b2bd
00000030: 54ec 47bd 2e8e 4cbf a438 fcbd 9017 5f3f
00000040: 9c90 b43d 09d6 bdbd 1c75 e0be 2111 543f
00000050: a7d7 af3c 2cdb d3be eede 7d3f 01e5 0cbd
00000060: 4c20 bdbd cbe7 453f c699 a9be ac10 8e3c
00000070: 4f5e 19be b0bd 703f 7440 593f d78b ff3d
00000080: 2a9a 2a3d f6a9 1a3e 11dc cbbc 59a0 15bd
00000090: 5b08 443d ca19 753d 5b37 8cbe a724 063e
000000a0: 5e01 903c 9d46 103e 59c7 113f 07b7 0d3d
000000b0: 1e7f 53bd a05f 443f eb54 e8bd abde 78bf
000000c0: db86 85bd 5f8f eabd f70e df3e bae3 8abf
000000d0: 17ae 35bd 88e1 083f 8a5d 3dbf a8ed 46bd
000000e0: 038a ab3b af54 0cbf 27ba e13e 546b 873d
000000f0: 9894 1cbe c074 86bf 4e96 7fbf 5c4e 77bd
-0.29158574 -0.008924352 -0.019891793 -0.06830605 -0.0090835495 -0.03989122 0.110183574 0.093582176
0.06605091 0.04702658 -0.25798637 -0.08718692 -0.048809364 -0.7990445 -0.12315491 0.8714533
0.088166445 -0.092693396 -0.43839347 0.82838637 0.021465136 -0.41378152 0.9916829 -0.034398083
-0.09234676 0.77306813 -0.33125132 0.017341934 -0.14977382 0.9403944 0.8486397 0.12477844
0.04165093 0.15103897 -0.02488521 -0.036529873 0.04785953 0.059839047 -0.27385983 0.1309992
0.017578777 0.14089437 0.56944805 0.034598377 -0.0516349 0.7670841 -0.11344322 -0.97214764
-0.06519862 -0.11453127 0.43566105 -1.0850747 -0.04435548 0.53469133 -0.73970854 -0.04856649
0.005234958 -0.54816717 0.44087335 0.06612268 -0.15291059 -1.0504379 -0.9983872 -0.060377464

fc_layers.4.bias f4 [2]
00000000: 79ba d7be 6666 5c3e
-0.42134455 0.21523437
