dice_classifier_2epoch.pth (torch, 885108 bytes, 8 tensors)

weight f4 [32, 1, 3, 3]
000000 76 a9 a9 be 98 b3 63 be 0b bb 94 be 4e f3 40 be
       -0.331371 -0.22236478 -0.29048952 -0.18842813
000010 e8 0f 6c 3e fd e3 ab bd a2 fe 5e 3e 5d 3e 66 3e
       0.23052943 -0.08393095 0.21776822 0.22484727
000020 5e af 15 bc 77 e6 50 bd c8 09 f0 bd c7 f7 a9 bd
       -0.009136049 -0.05100104 -0.117206156 -0.08299213
000030 bd 06 fe bd b3 69 77 3d a0 81 a2 bd e7 bb 97 3e
       -0.12403629 0.060403537 -0.0793488 0.29635546
000040 51 8b 8a be 5b e1 b9 3e 82 3f 06 bd 1c 5e ef 3d
       -0.27059415 0.36304745 -0.03277541 0.11687872
000050 3e 41 52 3e b2 ce 3f 3e 7a e2 10 be ce 80 13 3d
       0.205327 0.18731192 -0.14148894 0.03601151
000060 6a 78 74 3e 80 f1 15 3e 7e 58 45 3e c2 c9 20 be
       0.2387406 0.14642906 0.19272038 -0.15701964
000070 54 15 1e 3e ed 89 36 3e ca f3 2f 3e 9e da 45 3c
       0.15437824 0.17826052 0.17182842 0.012076048
000080 ca 65 e1 bd 1f de 1d 3e de da c9 3c d6 07 85 3e
       -0.11005743 0.15416764 0.024640497 0.2598254
000090 e0 7c 3d bd 86 2b 79 be b0 3e 0f 3e f3 61 3c be
       -0.04626167 -0.24333009 0.13988757 -0.1839674
0000a0 a1 8b 8a 3e ec b5 89 be 68 42 6e bd 80 bf a5 bd
       0.27059653 -0.26896608 -0.0581688 -0.08093166
0000b0 ae bd 9e be 53 33 10 bd 38 1c 67 3d ff 82 a2 3c
       -0.3100409 -0.035205197 0.056423396 0.019837854
0000c0 13 09 ad 3d 0d 10 07 3e 66 b5 c6 3e cb b1 ab be
       0.084489964 0.13189717 0.3881027 -0.33534083
0000d0 a1 20 de be 8a 3a ef 3d ec 0c 48 be 0b 0b af bd
       -0.4338427 0.11681087 -0.1953618 -0.08547028
0000e0 c5 1b 97 3a 2d 15 aa be 01 99 12 3e 9b ca 12 3d
       0.0011528662 -0.3321928 0.14316179 0.03583775
0000f0 36 6b 7b 3e a7 3b 0f 3f 74 d4 9a 3e c3 57 15 3d
       0.24552616 0.559504 0.30240214 0.03646065
000100 99 37 8f be 19 f6 cb 3d ca c8 a0 3d 5d 2b 7d 3e
       -0.27972105 0.09959049 0.078507975 0.24723573
000110 01 84 84 3e 87 b6 19 3e ea b6 9d be 29 2f 98 be
       0.2588196 0.15011035 -0.30803615 -0.2972348
000120 ed 4e 92 3d b4 d8 96 3e 85 4b 83 bd cd 45 af 3e
       0.0714396 0.29462206 -0.064108886 0.3423294
000130 95 15 b3 3e f1 65 8c 3c 7c a9 25 bd af 0c 22 3e
       0.34977403 0.017138453 -0.040444836 0.15825151
000140 3d b3 ff bd 55 e8 51 3e 8c 07 87 3e 4d a6 ca 3c
       -0.12485359 0.20498784 0.26372945 0.024737502
000150 8e d8 98 3e b1 b5 78 3e 83 b7 7e be 5d 89 d7 bd
       0.29852718 0.2428806 -0.24874692 -0.10524247
000160 69 10 8a 3e 06 c4 4b be b0 4e ce bd 2e 49 5f be
       0.26965645 -0.19898996 -0.10073602 -0.2180526
000170 28 2f 2e be c5 62 bc be 14 78 dc bd 05 09 5a 3e
       -0.17010176 -0.36794105 -0.107650906 0.21292503
000180 f4 9c 1c bd 3a a9 c4 3e 13 4a ca 3e 0a 6d a8 be
       -0.03823562 0.3841036 0.3950964 -0.3289569
000190 f0 1a 25 3e c0 47 f8 bd 92 b4 75 3e af 5d 81 be
       0.16123557 -0.1212306 0.23994663 -0.25266787
0001a0 45 ca 83 3e 84 1c a6 be 82 ad 47 3e 56 c0 03 be
       0.25740257 -0.3244363 0.19499782 -0.12866339
0001b0 f4 8e 44 3e aa e1 1e 3e 38 8b 19 bd 02 9b a6 3e
       0.19195157 0.15515772 -0.037486285 0.32540137
0001c0 fa 26 29 be d4 10 ac be b2 76 17 3d f0 41 26 be
       -0.16518775 -0.3360659 0.03697843 -0.1623609
0001d0 2a b7 26 3e 3d c3 87 be 92 52 60 3e e8 81 99 3e
       0.16280809 -0.26516142 0.21906498 0.29981923
0001e0 f9 f7 ae be b6 ea 36 3d ac a2 87 be 0b f5 4b 3e
       -0.34173563 0.04465743 -0.26491296 0.19917695
0001f0 e4 79 83 be 26 39 35 bd 8e a3 96 be 33 d9 d7 be
       -0.25678933 -0.044243954 -0.29421657 -0.42157897
000200 e7 12 4a be a7 64 4e bd 60 f2 0c 3d c2 5a 8c 3e
       -0.19733773 -0.05038896 0.034410834 0.27412993
000210 05 89 c4 3e b8 98 e6 bd 7d 5d bd 3e 42 34 a2 bd
       0.38385788 -0.112595975 0.36985388 -0.07920124
000220 f1 48 2b 3e f9 d4 52 be 21 0d d2 3d 13 8c d1 3e
       0.16727044 -0.20589055 0.102564104 0.4092718
000230 b6 13 a4 3e 5f f9 0d 3c a7 c1 ba be 39 87 af be
       0.32046288 0.008665412 -0.3647587 -0.34282854
000240 dc 78 2a bd 38 9f b1 3d f5 a6 0c 3e 35 8f aa 3d
       -0.041619167 0.08672947 0.13735564 0.08328096
000250 14 e1 b0 3c 46 ab 55 3e 3e b6 96 3e 6c c5 a8 3d
       0.0215917 0.20866117 0.29435915 0.0824078
000260 18 f4 20 3e 94 22 8c be fe 40 49 be cc 75 f3 bd
       0.15718114 -0.2737013 -0.19653699 -0.11887702
000270 bf 58 9c be 10 02 f0 bc 43 d6 a1 be 0c df 91 3d
       -0.30536458 -0.029297858 -0.3160878 0.07122621
000280 28 62 2b be f0 25 b4 bc a8 bf 6a 3e 4b dc 63 3d
       -0.16736662 -0.021990746 0.22924674 0.05563001
000290 ea 1c 04 3e 15 da 22 3d 6f c4 7d be a3 5e 92 be
       0.12901655 0.03975876 -0.24781965 -0.28587827
0002a0 bf 7f 13 bd 1f ae 97 be 9a 12 85 3e 2f d5 e0 3d
       -0.0360105 -0.2962503 0.25990754 0.109781615
0002b0 b0 6c c8 be 52 7c d7 be 87 6e 2b be ab 34 2a 3e
       -0.39145422 -0.42087036 -0.16741382 0.16621654
0002c0 a9 4b f7 3d 2c b8 28 3b 79 f4 7e 3e 24 27 a4 3e
       0.12074978 0.002574454 0.24897946 0.32061112
0002d0 e8 4c e1 3d 8c 5d 20 3e 40 00 ae bd 35 a2 e8 3d
       0.11000997 0.15660685 -0.084961414 0.113590635
0002e0 73 b6 1d 3e 7e 89 a8 be 5d 1c 7e 3e 75 0f 3b 3e
       0.1540163 -0.32917398 0.24815507 0.18267615
0002f0 08 18 b8 3d f2 0f a4 3e 1a e7 9f 3e f8 0b 2a 3e
       0.089889586 0.32043415 0.31231004 0.16606128
000300 c9 18 6e be 7a 11 ad 3e 50 02 da 3d 13 8f a7 3d
       -0.23251642 0.33802396 0.10644972 0.08181586
000310 4f 70 2f 3b 23 5b 01 3e 26 8f 9d be 5b ee 93 3d
       0.0026769822 0.12632422 -0.30773276 0.07223197
000320 e9 d8 76 3d ea 65 d7 bc 2c a7 94 3e 84 6b ee 3d
       0.060265455 -0.026293714 0.29033792 0.11641601
000330 2e 55 1c be b9 36 5d 3e d9 e5 8c be 30 6d 82 bc
       -0.15266868 0.21602906 -0.2751911 -0.015921205
000340 48 9f c7 bd c3 4d 78 be a1 83 7c 3e e3 0c cd 3e
       -0.09747177 -0.24248414 0.24659587 0.40048894
000350 2b 96 0c be e7 c0 5a 3e 7c 30 c1 3e c6 8d 73 3e
       -0.1372916 0.21362649 0.37732303 0.23784551
000360 90 86 e8 3d be f0 c6 bd d7 86 5d 3e 84 71 a1 3e
       0.11353791 -0.09713887 0.21633469 0.31531918
000370 85 25 dc 3d a9 55 20 be 54 7e 37 3e d2 cb 43 be
       0.10749344 -0.15657677 0.17919284 -0.1912072
000380 ff c0 01 bf 36 0e 00 be 5d be 86 3e b3 2e f5 bd
       -0.50685114 -0.12505421 0.2631711 -0.11971798
000390 22 4f d6 be b7 1b b4 3c 3e 8f 70 3e 14 21 48 be
       -0.4185725 0.021985872 0.23492143 -0.19543868
0003a0 a5 b8 03 3d 56 08 a3 3d d3 22 9b 3e 85 59 15 3e
       0.032158513 0.07960574 0.30300006 0.1458493
0003b0 df ba 4a be 41 e0 6b 3e db 11 c7 be 7b de 13 bf
       -0.19797848 0.23034765 -0.3888081 -0.57761353
0003c0 69 18 8e 3e 12 6e 17 3e 80 e6 59 3d 76 ec 73 be
       0.27752998 0.14788082 0.053198338 -0.23820671
0003d0 55 63 e3 3d f6 e4 38 3e 13 48 71 be a8 a9 23 3e
       0.111029305 0.18056092 -0.2356265 0.15982687
0003e0 0f 9a 11 3e 7c 96 30 bd 47 26 8f 3e a3 bd ba be
       0.14218925 -0.043112263 0.2795889 -0.36472806
0003f0 80 69 c6 3d 40 00 57 3d 60 10 76 be ac 94 a6 bd
       0.09688091 0.052490473 -0.24029684 -0.08133826

bias f4 [32]
000000 9d 38 b2 3e 0a 56 a8 bd fb c4 ed 3d 9b 30 f6 be
       0.34808818 -0.08219536 0.11609837 -0.48083958
000010 88 0c 89 be 88 20 1c ba a1 6d 44 bd cd bd d9 39
       -0.26767373 -0.0005955775 -0.047956113 0.00041530878
000020 0e 00 c8 3c 7d fa c7 be f7 c0 77 bb e8 f0 70 be
       0.024414089 -0.39058295 -0.0037804225 -0.23529398
000030 61 a3 9d bd dc d1 ac 3e 98 10 47 bb 34 86 41 bc
       -0.07697178 0.3375386 -0.003037488 -0.011811782
000040 d4 b4 92 3e 9a ea 89 be ef a3 04 3e b3 34 2f bb
       0.28653586 -0.269368 0.1295316 -0.0026734292
000050 f5 10 a4 bc 59 71 b5 bd 41 63 ab bb 6b 77 6a bd
       -0.020027617 -0.0885951 -0.005230338 -0.057242792
000060 02 3a 2a 3b 39 89 99 3e 69 d7 86 3b 9a 60 61 bb
       0.0025974517 0.29987505 0.0041150344 -0.0034389854
000070 70 03 67 be 32 77 64 bb 80 9f c4 bc 34 79 95 bd
       -0.22559905 -0.0034861085 -0.024001837 -0.07298508

weight f4 [64, 32, 3, 3]
000000 e8 65 83 3d 58 44 9f 3d c7 81 a8 3d 70 bb c7 3c
       0.064159214 0.077767074 0.08227878 0.02438137
000010 23 75 0c 3c e8 b1 16 3d ce 80 e7 3d 22 90 48 3d
       0.008572849 0.03679076 0.113038644 0.04896558
000020 43 ce 95 3d e3 4a 3f 3c 62 09 52 bd cd f3 dd 3d
       0.07314732 0.011675569 -0.05127848 0.10837517
000030 05 ee cc bd 9b df 8a be 1c 00 80 be f8 e2 97 ba
       -0.10006336 -0.27123722 -0.25000083 -0.0011588028
000040 d2 fb be bd 99 0a ea bd 12 6a f3 bb 6d 74 b2 bc
       -0.09325375 -0.114278026 -0.007428416 -0.021784032
000050 97 44 e2 3c fb c8 c4 bd 68 65 d3 bd 53 16 42 bd
       0.027620597 -0.096086465 -0.10322076 -0.04738457
000060 4c f4 8e bd 3d d6 8c bd bf 65 8f bc 6a 6d 83 bd
       -0.0698019 -0.068768 -0.017504571 -0.064173535
000070 42 31 fc bd b0 c3 4a be c8 4f 24 be 51 b7 79 3b
       -0.12314083 -0.19801211 -0.16046059 0.003810365
000080 d0 87 0e be b3 f6 b9 3c a1 21 0d 3d 2f 4b 82 bd
       -0.13918996 0.022700643 0.0344559 -0.063619964
000090 00 ea ea b9 c2 7f 9d 3c 86 bb a4 3c 10 5b 18 bb
       -0.00044806302 0.019225959 0.02010895 -0.0023247637
0000a0 58 f3 bc 3b f8 43 b4 bc f0 c5 38 bb ab df 6a 3d
       0.0057663135 -0.022005066 -0.0028194152 0.057342213
0000b0 80 e5 03 bd fe 53 9a 3e ac 2b c7 3d e1 d7 e2 3d
       -0.03220129 0.30142206 0.097251266 0.11076332
0000c0 53 e0 b7 be e5 89 2e bd 89 0f 12 3e d6 43 83 3e
       -0.35913333 -0.042611975 0.14263739 0.25637692
0000d0 c2 1f 41 3e 40 7a 73 3e 76 32 01 be d6 d6 51 be
       0.18859771 0.23777103 -0.12616906 -0.2049211
0000e0 0c 0c 38 bd 9e 16 43 be 20 83 68 be ff 6b 7b 3d
       -0.044933364 -0.19051597 -0.2270627 0.06138229
0000f0 67 00 0d 3d 66 e6 c4 bd 9c 8a 06 3c 17 f8 49 3e
       0.03442421 -0.096142575 0.008211758 0.19723545
000100 8a 03 a8 3d fa 0a c8 3c 8a 45 90 bd 4a 48 cd bd
       0.082038 0.024419297 -0.070445135 -0.10023554
000110 f3 6a 95 3d 6d 3d 31 3e 7d b6 9e 3e 15 dd f1 3d
       0.072957896 0.17308588 0.30998603 0.11809746
000120 d4 dd 35 3d d0 06 c4 bd ea 8f 8e bd d3 90 ab bd
       0.044401005 -0.09571612 -0.06961043 -0.083772324
000130 d7 68 e5 bd 58 28 1b bd b7 4e d9 3b bf 45 14 be
       -0.11201637 -0.03788027 0.006631698 -0.14479731
000140 bf 1d 8f bd 8d a5 5c 3e c1 50 5e 3e f6 5f c0 bd
       -0.069880955 0.21547528 0.21710493 -0.09393303
000150 56 56 ab 3d c2 b9 2c 3e c2 f7 c0 3d 05 09 76 3e
       0.08366077 0.16867736 0.09422256 0.24026878
000160 56 b4 25 3e a9 94 59 3d 7e 31 50 3e 1d b3 36 be
       0.16182074 0.05312029 0.2033138 -0.17841764
000170 15 9e b8 3d 83 1b 89 bb ce 39 c4 3c 30 c0 21 3e
       0.09014527 -0.004184188 0.023953345 0.1579597
000180 23 bb f2 3d 48 2c d0 3d 0a 00 dd 3d 78 63 b3 bb
       0.118521 0.10164696 0.10791023 -0.005474504
000190 77 a7 65 3d 14 79 52 3c 04 bb 16 bd f4 e2 38 3c
       0.05606791 0.01284625 -0.036799446 0.011284579
0001a0 19 f3 10 3d c4 c8 26 3c 33 3f 34 3d 82 a4 d9 bc
       0.035388086 0.010179702 0.044005584 -0.026567701
0001b0 05 e6 a6 3e ad bf 8b 3e c0 64 45 bb df 40 06 3d
       0.32597366 0.27294675 -0.0030119866 0.03277671
0001c0 ce d7 b8 bc 06 0f 7f be ba cd 53 3e 94 f4 9a 3e
       -0.022563841 -0.24908075 0.20683947 0.30264723
0001d0 0e 96 da 3d 85 5a 98 3d 46 b1 31 3d c7 d9 a7 3d
       0.10673152 0.0743914 0.04338195 0.081958346
0001e0 01 36 d6 3d 39 cc 4e 3d 4b ae 3c 3d 10 53 c7 3d
       0.10459519 0.05048773 0.046064656 0.0973264
0001f0 62 df c9 3d d0 88 ea 3d f9 de b3 3d 32 2a a1 bb
       0.0985706 0.11451876 0.08782763 -0.00491836
000200 fc 3e 5c bc 12 84 a1 bd 0c ae b9 3c 4e 3b a5 3d
       -0.013442751 -0.078865185 0.022666 0.08067952
000210 48 47 b6 3d 68 3b 1c 3e c2 ff b3 3d b0 0d 03 3e
       0.089003146 0.15257037 0.08789016 0.1279819
000220 73 c0 50 3d dd 3a 85 bd e4 06 65 be 4d e4 c8 be
       0.050964784 -0.06505368 -0.2236591 -0.3923668
000230 17 96 eb 3d cb 20 56 3e fb 99 06 3d 83 42 14 3e
       0.11503237 0.20910947 0.03286169 0.14478497
000240 29 56 1c 3d f8 bd 7e bd c8 08 18 3d d7 44 76 3c
       0.038168106 -0.062192887 0.03711775 0.015031061
000250 6a da 43 bd a6 cc f2 3c 02 d3 05 bb fc 2e 4c 3b
       -0.047815718 0.0296386 -0.002041996 0.0031155935
000260 aa a5 1e 3d 9c 9b 53 3c 28 8a eb 3b 9b ae 66 bd
       0.03873221 0.012915518 0.0071881004 -0.05631886
000270 44 0b 5d 3c 64 62 6b 3c 47 74 5b 3d fd 89 3c bd
       0.013491455 0.01436672 0.053577688 -0.046030033
000280 e4 fe db bc 44 c7 16 3c af 1e 49 3d b8 09 82 3d
       -0.02685494 0.009202782 0.049101528 0.0634951
000290 fd 7b fb 3b f2 91 ad 3d 6a b6 83 3c a5 ca 60 bb
       0.0076746927 0.084751025 0.016078193 -0.0034300473
0002a0 4c f2 71 3d 24 44 a1 3d 6d 7c 08 3e 3e 7e 68 3e
       0.059068963 0.07874325 0.13328715 0.22704408
0002b0 67 77 d5 bd 8e 20 d3 3b 74 ba 58 3c 08 95 50 3d
       -0.10423165 0.00644309 0.013228048 0.050923377
0002c0 01 f4 38 3e 27 b8 07 3e 1a ae be 3c 24 31 80 3d
       0.1806183 0.13253842 0.023276377 0.06259373
0002d0 54 eb 0f bd d9 91 58 bd 48 e4 3f bd 17 41 f5 bd
       -0.035136536 -0.052873466 -0.046848565 -0.119753055
0002e0 36 35 2d be b5 19 fb bc 7d 83 3e bd 5a 8b 2d bd
       -0.1691483 -0.030651907 -0.046512116 -0.042369224
0002f0 6e 00 b7 bd ce d4 2e 3d 83 67 c0 bd 27 30 7e 3c
       -0.08935629 0.042683415 -0.09394743 0.01551441
000300 e5 5f ee bd 0f 0e 35 be c5 de ac bc f1 1e 41 bd
       -0.11639384 -0.17681144 -0.021102319 -0.04714865
000310 5d 87 33 be ed ad 22 bd d2 d7 c2 3e da 50 a8 bb
       -0.17532106 -0.03971665 0.38055283 -0.0051365914
000320 0f 5a dd 3c 42 a8 15 bc ce c6 c0 be 4c 5f 30 3e
       0.027020482 -0.009134354 -0.37651676 0.17223853
000330 26 4f 9a 3e 0f 5e 03 bd a3 61 5c 3e 81 ff b7 bc
       0.3013851 -0.032072123 0.2152162 -0.022460701
000340 9f 3d d8 bd 1a 34 ad bd ef c9 34 be 07 54 97 be
       -0.10558628 -0.08457203 -0.17655157 -0.29556295
000350 6e b3 e4 bc 56 05 68 3d 2f 90 a9 bd d5 43 1c bc
       -0.02791759 0.056645714 -0.08279454 -0.009537657
000360 87 a7 71 3e 5b e7 f7 3d c4 f0 81 bd c4 c1 29 bc
       0.23599063 0.121046744 -0.063447505 -0.010361139
000370 7e 17 15 be 25 71 90 3d a3 15 32 3e ca e4 53 3e
       -0.14559743 0.070528306 0.17391066 0.20692745
000380 de 16 51 3c f4 2e cd 3b 13 c7 9f 3d 71 43 ac 3c
       0.0127618 0.0062617008 0.07801642 0.021028252
000390 1c 2e 65 3d d6 1a 80 bc fc 1e 2b 3d 0a e2 bd 3c
       0.055952176 -0.015637796 0.041777596 0.023179073
0003a0 c9 a7 47 3d 51 9b 02 3d 4f 56 06 3e 0f 19 09 3a
       0.048743997 0.031886403 0.13118862 0.0005229869
0003b0 55 55 d5 ba fb d2 ae 3c 86 22 e0 bc 15 75 4f 3c
       -0.0016276041 0.021340838 -0.027360212 0.012662192
0003c0 66 5c d8 3c 9f 31 c9 3c 3d e7 2e 3a 6a cb d6 3e
       0.026411247 0.024559794 0.00066720304 0.41952068
0003d0 6a fd f2 3d 40 d2 19 3e 5b 61 74 3e 0d 5d 19 be
       0.11864741 0.1502161 0.23865263 -0.14976902
0003e0 3a 5b 20 3e b8 7e 9d 3e 7c 28 18 ba fc 8c 5b 3e
       0.156598 0.3076074 -0.00058043725 0.214405
0003f0 b0 7d 03 3b f8 81 a0 3b 88 cf 12 bd ee 2c dc 3c
       0.002006393 0.004898306 -0.03584245 0.026876893

bias f4 [64]
000000 7a cf 06 3a b4 90 89 bd e4 5c e8 bc b7 c8 c5 3d
       0.0005142611 -0.06717053 -0.028364606 0.09657424
000010 b0 9c cb bb 6c fa d9 3d 94 00 f5 bb c7 d6 54 3c
       -0.006213747 0.10643467 -0.0074768756 0.01299066
000020 bc c3 54 3c 58 5e 4e 3d 79 81 72 bd 7b 34 83 3c
       0.01298612 0.050382942 -0.059205506 0.016016236
000030 be 60 38 3d b8 42 7c bc 65 b4 5d bd d0 5f 05 3d
       0.045014136 -0.015396766 -0.054127116 0.032562077
000040 20 7d ed bb 66 49 68 bd 8a d4 ab bb 88 c2 84 bd
       -0.007247582 -0.056710623 -0.0052438425 -0.064824164
000050 2e fb 58 bd 29 8e 2c 3d 3a 83 c8 bc 90 74 fe 3c
       -0.05297392 0.042127762 -0.024476636 0.03106144
000060 61 08 1b 3c be 97 8a 3b 1d ab b0 bc 42 3e 79 bd
       0.009462447 0.004229515 -0.021565968 -0.06085039
000070 f7 7b 46 bc db 8b e1 3d 67 f7 40 3d 88 4b d8 3c
       -0.012114516 0.110130034 0.04711094 0.026403204
000080 c5 f8 9f bc 4d 63 ca 3c ff f1 0c bd c5 06 62 bd
       -0.019527802 0.024705553 -0.034410473 -0.055182237
000090 40 97 31 3c 76 b7 d6 3c 16 34 38 bd 43 2c 5c bd
       0.0108392835 0.026210528 -0.044971548 -0.05375315
0000a0 b8 7f 2c bd 36 4c 8c bd 88 86 bb bd fa e3 7d bd
       -0.04211399 -0.068504736 -0.09156519 -0.061984994
0000b0 aa 03 01 bd b1 fc 35 3c 14 81 c3 3d bd c7 73 bc
       -0.031497635 0.01110761 0.09546104 -0.014879164
0000c0 4d 5e 74 bd 3a 8c 80 bd 24 48 3c 3d 1a 6c a8 3b
       -0.059660245 -0.06276746 0.045967236 0.00513984
0000d0 d4 ce 31 bd 93 f1 92 bc d3 8d e4 bc f3 74 40 3c
       -0.043410137 -0.017937457 -0.027899658 0.011746633
0000e0 9b 1b 12 3d 6b 22 f4 3c f5 ef 86 bd 17 b0 32 bd
       0.035670858 0.029801568 -0.06588737 -0.043624964
0000f0 5a 44 75 bd b7 79 84 bb 77 98 da 3c 9c 1e 92 3d
       -0.05987964 -0.00404283 0.026684029 0.071347445

weight f4 [64, 3136]
000000 53 92 48 3c f8 4a 01 bd b4 e1 76 bc 58 d0 da bc
       0.012241918 -0.031565636 -0.01506846 -0.026710674
000010 4c f1 28 bd 9b 6f 04 bd 59 82 7c bc dd 90 e5 3c
       -0.041245744 -0.032332998 -0.015411937 0.028023178
000020 7a 2e e4 bd 75 f1 f9 bd 55 b8 df bd 41 14 dd bd
       -0.11141677 -0.122042574 -0.109238304 -0.10794879
000030 df fb 6a bd f3 02 05 bd ac cf 50 3c 87 a9 22 be
       -0.05736911 -0.032473516 0.012744825 -0.15884982
000040 14 cc 47 be b6 34 93 be f0 0e 0c be 88 73 79 bd
       -0.19511443 -0.28751153 -0.13677573 -0.060901195
000050 92 d6 4b bd 51 80 53 39 4d 06 3d be 3a a5 46 be
       -0.049765177 0.0002017033 -0.18459435 -0.19398966
000060 9e 3a fa be ba fe a7 be 00 49 ad bd a5 4a 2c bd
       -0.48872846 -0.32811528 -0.08461189 -0.042063374
000070 61 75 5b 3d f5 6c 0e be 67 f8 90 bd 1c 6a 7f be
       0.053578738 -0.13908751 -0.07078629 -0.24942821
000080 e2 42 39 be 15 46 dc bd 0c 55 a9 bd e4 7c 6d 3d
       -0.1809192 -0.107555546 -0.082681745 0.057980433
000090 8c dd 80 bd 71 cd 49 ba 34 df d9 bd 24 b3 f9 bd
       -0.06292257 -0.00076981547 -0.10638276 -0.121923715
0000a0 e1 7a b9 bd 04 19 37 bc 2b 8f c7 3d 91 dc 8e 3d
       -0.090566404 -0.011175398 0.09744104 0.069756635
0000b0 84 d2 5f 3d 54 08 e6 3b ac 40 05 bc 61 58 3b 3d
       0.054644123 0.0070200358 -0.008133095 0.04573858
0000c0 51 83 76 3d 3b 70 1b 3c 46 b8 8b 3c 26 1c 10 bd
       0.060183827 0.009487207 0.017055642 -0.035183094
0000d0 20 be 9c bc 71 5b 98 3c 59 55 0c 3d 0d 4d 22 3b
       -0.019133627 0.01859829 0.03426108 0.0024765164
0000e0 a9 60 14 3c 3e bf f8 bc 5b 87 a4 bd 7e 2d 50 bd
       0.009056249 -0.030364629 -0.080336295 -0.050824635
0000f0 04 10 42 bd 48 ce 1c 3d c4 f5 d7 bb da 93 23 bc
       -0.047378555 0.038282663 -0.006590577 -0.009983981
000100 61 08 fa bc 12 ab 01 3d 6b 26 da 3d 58 5e 8c ba
       -0.030521573 0.031657286 0.10651859 -0.0010709269
000110 63 7f 16 3c 6f f7 58 3c a5 97 56 bc 74 f4 c7 3c
       0.009185645 0.0132425865 -0.013097678 0.024408557
000120 d1 1d d7 3d bd 82 04 3e 9e 62 0f 3e b5 6b 0c 3e
       0.10503734 0.12940498 0.14002463 0.13712962
000130 1b b7 94 3d 31 0e d3 3b cf 31 dc bc 67 32 f2 bc
       0.07261487 0.0064409007 -0.02687922 -0.02956505
000140 f7 ce a2 3d 1f f5 91 3d ac 70 e3 3d 4a 64 be 3c
       0.07949632 0.07126831 0.11105475 0.02324118
000150 04 a1 6a 3d 83 90 7f bc c1 f5 68 bd f0 3b 7f bc
       0.057282463 -0.015598419 -0.056874994 -0.015578255
000160 f7 2d 4a 3d 32 69 a1 3d d4 fe db 3c d3 70 68 3a
       0.04936024 0.078813925 0.02685491 0.000886691
000170 41 3f 3f 3d 8e e4 d3 3c d0 d4 b4 bc e3 76 12 bd
       0.046691183 0.02586582 -0.022074133 -0.03575791
000180 0a f4 19 3b 4c 7a bb 37 8a 02 8d bc d5 43 77 bc
       0.0023491406 2.2349086e-05 -0.017213125 -0.015091856
000190 c8 d1 c4 3b 28 9f cb 3b 18 36 62 bc be 97 73 3c
       0.006006453 0.0062140413 -0.013806842 0.014867721
0001a0 88 a8 99 3b f0 f2 ba 3a 4c dd 1c 3c 40 96 6d ba
       0.00468928 0.0014263075 0.009574246 -0.00090632215
0001b0 a0 9f 30 ba 28 ad 05 bb 81 5e 7b bc bc 36 db bb
       -0.0006737653 -0.0020397399 -0.015342356 -0.0066898745
0001c0 06 21 a5 bb ac de 1f bc 5e b7 72 bc e0 53 6f ba
       -0.005039337 -0.009757679 -0.014814226 -0.0009129625
0001d0 e2 f5 75 3c 9a 5e 1d bc 5c a8 1c bb 3c 0b a3 3b
       0.015012236 -0.009605074 -0.002390406 0.0049757045
0001e0 d8 c1 3e 3b 60 4f c5 3a f0 4c 1f bb 40 c2 ff 3b
       0.002910724 0.0015053563 -0.0024307333 0.007805139
0001f0 18 43 29 3c 9c ee 0c 3c a7 fb 85 3c 3e 64 4d bc
       0.010330938 0.008601811 0.016355349 -0.012536107
000200 8e 23 67 bc ac ec 68 bc a0 43 96 3a 0a da 23 3c
       -0.014107598 -0.014216583 0.0011464246 0.010000715
000210 78 08 84 bc 00 87 2e b9 f0 f1 f6 ba 46 50 64 3c
       -0.01611732 -0.00016644225 -0.0018840414 0.013935154
000220 93 bf 58 bc b0 9e 8e 3b aa e7 69 3c 08 45 6c 3b
       -0.013229269 0.004352413 0.014276424 0.0036051888
000230 88 d4 fa 3b 58 11 cf 3b 61 d9 7d bc 1c e5 85 bc
       0.00765473 0.006319206 -0.015493722 -0.0163446
000240 f8 2c e9 3b f7 5c 90 3c ce e2 f1 bb 36 7d 52 bc
       0.0071159564 0.017622454 -0.0073817736 -0.012847235
000250 db c1 d2 bb e8 d3 8b 39 1f f2 d3 bc 5a 49 4c bd
       -0.006431801 0.00026670028 -0.025872288 -0.04987464
000260 48 cb 69 bd cc b9 3d bd fa 7d 8f 3b 65 97 b0 bc
       -0.05707863 -0.046319768 0.0043790312 -0.021556566
000270 b6 b5 91 3d 58 3d de 3d c8 e3 77 3d 03 ef 8f bc
       0.07114737 0.10851544 0.060519964 -0.017570024
000280 73 68 61 bd a3 50 cc 3b b1 81 9a bc f3 59 fb 3d
       -0.05503125 0.0062351986 -0.01886067 0.12273016
000290 e5 b5 20 be 39 95 0a 3e e0 08 55 3d 0b d8 7e bd
       -0.15694387 0.13533486 0.052010417 -0.062217753
0002a0 db 61 3f bc 04 7b 2f bd 6e c3 f0 3d c0 14 1b be
       -0.011681045 -0.042841926 0.11756025 -0.15144634
0002b0 a4 76 fd 3a 44 f3 fc 3d 23 82 87 bd 8e 6f 09 bd
       0.0019337726 0.12351087 -0.066166185 -0.033553652
0002c0 f5 54 a2 bd 5a 19 95 3d eb 5e 37 3e 4a 5e 01 3e
       -0.079263605 0.07280226 0.17907302 0.12633625
0002d0 e8 ba 41 bb 3f ff a9 bd c1 fd 9a bc 0f aa b1 bd
       -0.0029560868 -0.083006375 -0.018919827 -0.08675014
0002e0 b0 2f 9c bd 39 a3 b2 bc de e9 e5 bc fb 44 8e bd
       -0.07626283 -0.021806346 -0.028065618 -0.06946751
0002f0 e6 61 35 bd 4f c3 b3 bc 46 80 7d bd 77 63 82 bd
       -0.044282816 -0.021943716 -0.06188991 -0.06366628
000300 87 51 88 bd 99 16 1d bd 20 d9 2e bd 11 67 9b bd
       -0.06656175 -0.03835163 -0.042687535 -0.07588018
000310 db d3 ac bc 0e 0a d1 3b 86 79 2f bd 3f 25 f8 bc
       -0.021097114 0.0063793724 -0.042840503 -0.030291198
000320 ee 56 0b bd 56 b7 80 bc 0d 4b ee bc c2 bc d5 bb
       -0.03401845 -0.015712421 -0.029088521 -0.006522746
000330 7e 77 8f bc 4b a2 41 3d 23 d2 c1 3d 80 9b db 3d
       -0.017513033 0.047273915 0.094639085 0.10723019
000340 89 0f 8c 3c 3c 39 ca bc 5c c4 99 bc db 8c 85 3d
       0.017097251 -0.024685495 -0.01877039 0.06521007
000350 bc 42 32 3e 4c 0d 92 3e 32 e7 5f 3e 1c 94 cb 3c
       0.1740827 0.2852577 0.21865538 0.024850897
000360 d5 b5 35 bd 04 90 3c bd 9f b3 af 3d fb b4 51 3e
       -0.04436286 -0.04603578 0.08579182 0.20479195
000370 d4 36 88 3e a2 d1 7d 3e 59 41 dc 3d 52 74 3e bd
       0.2660433 0.24787 0.107546516 -0.04649765
000380 32 b4 af bc 32 8f c4 3c 99 bf 08 3e c8 57 83 3e
       -0.021448229 0.023994062 0.13354339 0.2565291
000390 9e 89 51 3e bf 8a a0 3d 48 bc f6 bc f3 52 38 bc
       0.20462653 0.07838964 -0.030119076 -0.011250245
0003a0 fb d4 81 bc a0 ab 35 3d 02 33 e5 3d 0a 30 a6 3d
       -0.015848627 0.044353127 0.111913696 0.081146315
0003b0 d9 8f b5 39 57 a6 01 bd 53 5a 13 3c c0 fd 0d 3a
       0.00034630185 -0.031652775 0.008993703 0.0005416535
0003c0 6e e0 84 bc ff 02 58 bb 62 e3 03 3c 2a 0d 53 bc
       -0.016220298 -0.003296077 0.008049818 -0.0128815565
0003d0 c9 5e 4d 3b ea d8 f5 3b ea 54 35 3d 0a 38 80 3c
       0.0031337014 0.007502665 0.044270433 0.015651722
0003e0 e1 66 e0 3c a9 0d 2a 3d e4 1a 1a 3c 9f 92 4e 3c
       0.027392806 0.041516934 0.009405825 0.012608199
0003f0 aa d1 36 3d 71 1e 31 bd 93 ec de bd db 17 c4 bd
       0.044633545 -0.04324192 -0.10884967 -0.095748626

bias f4 [64]
000000 44 b2 ba bc 7a cd ab bc 6e 96 93 bc 2c bf 91 bc
       -0.022790082 -0.020972002 -0.018016066 -0.017791353
000010 34 1d 19 bc be 26 51 3b 25 dc 71 bc c8 91 88 3b
       -0.0093453415 0.0031913961 -0.014761959 0.004167769
000020 c5 93 04 bc 7c 67 e3 bc 0b 83 5c bc dc e3 be bc
       -0.008091872 -0.027759306 -0.013458977 -0.023302011
000030 bf 7d 0d bc 95 68 5a bc 59 b6 fe bb ef b2 75 bc
       -0.008635937 -0.013330598 -0.0077732024 -0.014996274
000040 f5 07 c1 3b 34 67 46 bc d7 4a ca bc 65 26 2a bc
       0.005890841 -0.0121095665 -0.02469389 -0.0103851305
000050 19 63 ae bb 4e ff a0 bb b6 e0 62 3d 05 c0 69 bc
       -0.005321872 -0.004913247 0.055390082 -0.014266972
000060 96 fe 30 bc 63 31 bc 3d fa 89 8a bb 27 11 42 3c
       -0.0108028855 0.09189107 -0.004227874 0.01184491
000070 b5 af 7c bc a7 7f a3 3b 3e 7e e7 bb 6e ec d1 39
       -0.015422751 0.0049895826 -0.00706461 0.0004003974
000080 e3 9a 95 bc d8 3b bb 3d 81 13 aa bc f2 e9 d1 3b
       -0.018262332 0.09142274 -0.020761253 0.0064060623
000090 51 16 96 bc 2f 97 90 bc 83 51 ad bc 63 a4 1f 3a
       -0.018321188 -0.017650215 -0.021157032 0.0006089864
0000a0 56 70 b0 bc 20 43 32 bc 57 54 32 bc c3 f9 c4 3b
       -0.021537941 -0.010880262 -0.010884366 0.006011219
0000b0 8e 02 ca 39 a3 d3 16 bc f0 95 1b bc 2c 77 d5 39
       0.00038530346 -0.009205732 -0.009496197 0.00040715316
0000c0 96 37 60 bc 97 42 0a 3b cd 23 93 bc 10 eb fe bb
       -0.013685128 0.002109682 -0.017961407 -0.0077794865
0000d0 39 8d d4 3c a1 f4 15 bc 19 1c 83 3b 8d 53 1f bc
       0.025946246 -0.009152562 0.0040011522 -0.00972451
0000e0 a9 f3 d7 3b 6c 39 d9 bc 96 e5 81 bb da d2 cc 3d
       0.006590326 -0.026516639 -0.0039641364 0.10001154
0000f0 53 7c 65 bc 2b 2a fb bb 53 1a 93 3c af e4 91 bc
       -0.014006692 -0.007664939 0.017956888 -0.01780924

weight f4 [6, 64]
000000 6e e5 2e bf 8d 3d 05 3d 73 10 11 3d 3d ef 95 bd
       -0.6831883 0.032529403 0.035416078 -0.07321022
000010 e7 e0 a7 bd 6e 3b e4 bd 80 f2 cc bd fc 2b be bd
       -0.081971936 -0.11144148 -0.10007191 -0.09285733
000020 0c 4c b0 bd e4 7b 8c 3d d6 63 ce 3d 65 65 b1 bc
       -0.08608255 0.06859568 0.10077636 -0.021654794
000030 81 53 09 3c 06 6c 59 bd 77 fa ea bc 8c c0 25 bd
       0.008381725 -0.053081535 -0.028683884 -0.04046683
000040 dc f6 75 bd 19 e5 e2 3d c5 f5 ad bd 97 cb 93 bc
       -0.060049877 0.11078853 -0.084941424 -0.018041415
000050 18 51 30 bd 32 ff 47 bd ed 6e 8d be 37 0e 1b bd
       -0.043046087 -0.048827358 -0.27623692 -0.037855353
000060 d9 88 44 3d 04 40 64 3e 32 ab e2 bd 19 60 1a bd
       0.04798207 0.22290045 -0.11067809 -0.037689302
000070 ba fd 05 3e d8 1f 8a bd 31 18 02 3e 57 99 c4 bd
       0.1308507 -0.06744355 0.12704541 -0.0959956
000080 0d f2 e7 bd e7 2b c9 3e f6 55 88 3c 02 71 3a bf
       -0.113254644 0.39291307 0.016642552 -0.72828686
000090 c6 a1 80 3d 9d 7c 8a 3d b7 10 f4 bd 63 5e b4 3d
       0.06280856 0.06762049 -0.119172506 0.08807065
0000a0 7e 1c d9 bc 39 a8 e2 bd 16 08 cf 3d 70 77 83 bd
       -0.026502844 -0.11067242 0.10108964 -0.06419265
0000b0 08 73 e1 3d 33 fa cc 3d 41 50 4c 3b fc 5a d2 3d
       0.110082686 0.10008659 0.0031175765 0.1027126
0000c0 df 3d b4 3d 00 80 f7 be 4d b6 d6 3d 8a e6 ba bb
       0.088008635 -0.48339844 0.1048399 -0.005703752
0000d0 a3 3d 6c bd 9a 02 2d 3c 64 be 63 bb a0 bb 73 3c
       -0.05767597 0.010559702 -0.0034750933 0.014876276
0000e0 1f f8 c6 bd dc 6c b3 bc b6 4c f4 bd fc e3 f0 3e
       -0.09715294 -0.021902494 -0.11928694 0.47048938
0000f0 01 5c 19 bf 6b 26 c6 bc ce ff a1 bd 78 26 bd 3d
       -0.5990601 -0.024188241 -0.07910119 0.09235853
000100 89 93 f6 bc f9 29 b7 3d c4 7b 10 bd cc e3 b5 3d
       -0.030099647 0.089435525 -0.035274282 0.088813394
000110 22 aa 8b 3c dc a5 7b bb 11 97 f3 bd ce 0d bf 3d
       0.0170489 -0.003839842 -0.11894048 0.09328805
000120 f8 a7 d5 3d 98 52 49 bd 2b 42 02 bd 88 ad fe bd
       0.10432428 -0.049151033 -0.031801384 -0.12435442
000130 bf 7c be 3d d8 fd 9f 3d 89 d0 38 bc 1c 89 4c 3d
       0.09301137 0.07812089 -0.011280187 0.049935445
000140 62 3a 12 3d 23 14 83 bd 79 b6 00 bd 15 41 45 3d
       0.03570021 -0.06400325 -0.03142402 0.04815777
000150 41 5f 63 ba f9 d1 2a bc ef 70 ca 3e 1e 02 86 3d
       -0.0008673557 -0.010426038 0.39539286 0.065433726
000160 f9 c1 15 bd 4a c0 63 3e 89 5b a8 bd b7 35 2f bd
       -0.03656194 0.22241321 -0.08220584 -0.042775836
000170 a2 23 98 3d 62 be 95 3d f2 fc ed 3d 13 63 7a bd
       0.074286714 0.07311703 0.11620511 -0.06112964
000180 c3 ad 8c 3d dd 4e 9b 3d 31 09 0f bd 57 44 f5 bd
       0.0686908 0.07583401 -0.034920875 -0.119759254
000190 1d 5e 25 3d db 13 11 3d c8 e6 b7 bd 00 46 9e 3d
       0.040372957 0.035419326 -0.08979565 0.07728195
0001a0 f7 ef 8e 3d da 16 06 bd f8 24 fe bc fe b5 4b bd
       0.069793634 -0.032736637 -0.031023487 -0.04973411
0001b0 1d 8d ee 3d 0c 18 1b bd 69 7e db bd 3e 35 dd 3d
       0.11648009 -0.03786473 -0.1071747 0.10801171
0001c0 87 4e 11 bd a3 a4 11 bf 51 39 a9 3d 04 20 68 bd
       -0.03547528 -0.5689184 0.08262885 -0.056671157
0001d0 5a 78 b6 be ff 7d 76 bd 41 3c 86 bc e8 e8 26 bb
       -0.35638696 -0.060178753 -0.016386153 -0.0025468413
0001e0 af 48 31 bd bb 6a f5 3c 52 33 84 bd f2 df dd 3d
       -0.043282207 0.02995812 -0.06455101 0.1083373
0001f0 1b f3 a5 be d2 10 4b bb 4b c7 cc bd fa 74 b0 bd
       -0.32412037 -0.0030985367 -0.099989496 -0.086160615
000200 7d d9 ef bc 3c c9 8a bd 84 ce a7 3d cb 71 ca 3d
       -0.029278511 -0.06776664 0.081936866 0.098849855
000210 ce 18 32 bd 9f fd d2 3d 0c 17 1c bd 80 14 6a bd
       -0.043480687 0.10302281 -0.038107917 -0.057148457
000220 fa 48 cf 3d 05 f4 34 bd 1a 36 a1 3d 3b f0 99 bd
       0.10121341 -0.044178028 0.07871647 -0.075165235
000230 a7 ed 1c 3c 5c b3 8c 3d 8b 86 33 3a 90 c2 83 bd
       0.009578145 0.068701476 0.00068483566 -0.06433594
000240 f0 7a ab 3d b5 87 eb 3d ba ba ff bc f7 42 b4 3d
       0.08373058 0.115004934 -0.031216968 0.08801835
000250 b4 07 da bd 26 e3 97 3c 83 e4 48 be c8 4b 97 3d
       -0.106460005 0.01854093 -0.1961842 0.07387501
000260 4d 15 c9 bd 5e fa 75 bd 65 00 f9 bb 45 97 6c 3d
       -0.09818516 -0.060053222 -0.007598924 0.05776145
000270 1d 0f e4 3b 53 56 a6 3c 81 5b 55 3d 0d 71 84 3d
       0.0069598095 0.020304834 0.052089218 0.06466875
000280 b0 af b4 bd 17 7b 8a 3d 07 d9 16 bd 63 af 67 3d
       -0.08822572 0.06761759 -0.036828067 0.056563746
000290 09 e0 84 bd e3 c2 da 3d cd 78 82 3d 0c aa 28 bc
       -0.06488044 0.10681703 0.06370697 -0.010294449
0002a0 1d fd b2 3d be 08 e9 3b 41 c8 fb bc b7 64 71 ba
       0.08739684 0.007111638 -0.030735137 -0.0009208428
0002b0 4f 5c d0 3c 87 4e 7b bb e3 97 8b 3d 86 dc a2 38
       0.025434641 -0.0038346366 0.068160795 7.765838e-05
0002c0 b1 47 be bd eb 20 2b 3d 91 b4 eb 3d 28 76 07 bd
       -0.09291018 0.04177944 0.1150905 -0.033071667
0002d0 e1 5b b7 bd 85 1e e7 3c 37 a6 a7 3d e8 04 11 bd
       -0.089530714 0.028212795 0.08186 -0.03540507
0002e0 c5 bb e5 bd a1 c8 6d bd cd 5e 89 3d 4b 16 a8 3e
       -0.11217455 -0.058052663 0.06707535 0.32829508
0002f0 f3 a1 33 3d 6c 32 d1 bd 26 96 cd 3c 48 1d 8e 3d
       0.04385562 -0.10214695 0.02509601 0.06939179
000300 9c 2f 19 3e a2 c6 76 3d 89 01 f3 bc 84 4a 48 3d
       0.14959568 0.060248025 -0.029663818 0.04889919
000310 4a b6 9f 3d 7c 55 af bb 2b 0f 82 3d 39 f1 e7 bd
       0.07798441 -0.0053507667 0.06350549 -0.113253064
000320 62 8e d9 3d f5 fc ba bd e4 6b 68 3d c7 6f 40 3d
       0.106228605 -0.09130279 0.056743518 0.0469816
000330 09 b5 31 3d 54 f6 f6 bc 30 ec 84 3d 2d c1 ad 3d
       0.04338554 -0.030146755 0.06490362 0.08484111
000340 96 67 1e 3d ec 60 0b be ad b5 85 3d 22 85 de 3d
       0.038673006 -0.13611192 0.065287925 0.10865237
000350 74 ba a9 bc 63 f9 bb bd c4 aa d6 3e c7 ef 72 3c
       -0.02071879 -0.09178426 0.4192716 0.014827675
000360 54 95 12 3d 83 45 f8 bc a0 5c 08 bd a5 0a e9 bd
       0.03578694 -0.030306583 -0.03329146 -0.113789834
000370 60 6e fe 3c 16 43 f4 3d 49 b3 9b 3b 83 12 c1 3c
       0.03105849 0.11926858 0.004751597 0.023568397
000380 20 23 8a 3d f9 f3 34 be a9 a9 f7 bd 60 b3 26 3e
       0.06744981 -0.17671193 -0.12092907 0.16279364
000390 a4 b6 b9 bd fd a1 a2 bd 84 79 ea 3d 63 49 9b bd
       -0.09068039 -0.07941053 0.114489585 -0.07582357
0003a0 11 34 9b 3c d5 32 d4 bd d8 50 d8 3c ab 26 3c 3d
       0.018945726 -0.10361258 0.026405737 0.045935314
0003b0 64 54 bc bd 52 8d 05 3d fd 7e 97 bd 94 9f ca bd
       -0.09195784 0.032605477 -0.07397268 -0.09893718
0003c0 2c 7c 2b 3d 7a 1c 00 bd 6c b1 bf bd 2c ae 86 3d
       0.041866466 -0.031277157 -0.093600124 0.065761894
0003d0 8b f0 15 bd 65 c4 9f 3d 60 b4 e8 3c 42 00 b3 bc
       -0.036606353 0.07801131 0.028406322 -0.021850709
0003e0 fd 16 3c 3d f8 12 26 bc a5 c3 bb bb 96 97 8e be
       0.04592036 -0.010136358 -0.0057301098 -0.27850026
0003f0 20 13 aa 3d dc c8 98 3d 52 be c5 3a 91 cf 8c bd
       0.08304429 0.07460186 0.0015086627 -0.06875528

bias f4 [6]
000000 ad 98 c2 3d a5 7a 81 3d cf 3a a3 bc 3e 0e 57 bd
       0.09501777 0.06322221 -0.019925503 -0.052503817
000010 e8 b8 8e bd ae 27 03 3d
       -0.06968862 0.032020263
