dice_classifier_2.pth (torch, 884960 bytes, 8 tensors)

weight f4 [32, 1, 3, 3]
00000000: e6ea 07be 5635 9d3c 9dc7 5fbe d263 35bd
00000010: 761d d03d 477f 72be 2a26 9e3e 87e8 e7bd
00000020: 8014 35be a3eb 66be 30b7 26be 8263 313e
00000030: bc02 9a3d 6e74 6bbe 2372 9dbe 8c86 bc3d
00000040: 044c 89be be42 1fbe 37ac a83d 4402 c83e
00000050: 2b0e cc3e 18df 88be a602 50be 1456 873e
00000060: 8ee1 973d 26af d7be 8ee2 aebe 134d a7be
00000070: e33d 99be 7365 bdbc c567 1ebe e44e 90be
00000080: 306f 4cbe fce1 02bc 1eb5 5a3e ff6f 2ebe
00000090: c238 613e bc01 5d3e 9257 c8be 0af6 a13d
000000a0: 8767 253c 1b0f 06be 83c1 893e e5f3 71be
000000b0: fcd4 773e 28fa 18be 8288 733d 6b16 b43e
000000c0: be1e 83be 10f8 e13d f10c a6be df52 183e
000000d0: bdbc 153e 0bdb c7bd 2460 88bd 000b 95bc
000000e0: 041a c23d ee41 323e 50e4 88be 402c b83d
000000f0: b6b3 e4bd b20a 88be 77b4 a9be 9333 70be
00000100: 06e6 a4be 413e 71bc 03a7 a33e e9c9 0f3e
00000110: 809f 4c3e 0cf4 b23c 18ae 6cbd 243a 66bd
00000120: 2a5b 583e 6fd1 5abd d9c6 89bc 69c7 5abe
00000130: d132 07bf 40db 813e 6789 903e 1c06 84be
00000140: 5431 943e d153 673e ab8b 9fbe 7689 fdbd
00000150: a868 ae3e 921c 6b3e de56 98bd 1060 43bb
00000160: 7197 c2be 08ed 9b3d 5d48 d83e 5a4e 743e
00000170: e7be fbbc d1f8 2d3e a8af 95bd 70a7 9cbe
00000180: 276e 303d 5288 6cbe bb67 81be 634f 89bd
00000190: 8481 2ebe a7da 443e 7aee 733e a1a5 f3be
000001a0: 8beb a0be 2761 8d3e de01 d13d 990c 513d
000001b0: 497e 8fbd e1a2 dd3d acb9 74bd 29a7 03bf
000001c0: 812a 403e 987c a23e ada6 57bd a963 ec3c
000001d0: 0271 2d3d 2e66 45be e450 37be 6d06 0c3e
000001e0: c5bb 87be fede 4dbd 6b99 d4be d840 0abe
000001f0: f9e6 80be 11fe 84be acb6 ccbd d007 ba3d
00000200: 5efc 30be e8d1 3f3d c7aa 10be 6ae9 173e
00000210: c966 253e 2fd5 d4be f1a6 7f3d 8d96 603d
00000220: b4e6 4cbe 207a df3d 3418 8a3d 9859 d53e
00000230: f882 97be 9727 4dbe 547f 0c3b 73dc 07be
00000240: 3cb9 a53b edd9 e53d eb47 da3e 2913 d9bd
00000250: eb7c 9ebe c937 8b3c 9cde 073d c179 2c3e
00000260: b343 b3be 4057 19bd f0c2 893c 6c1c a1be
00000270: 50df b7bd 9b45 32be e6bf fabd e861 1fbd
00000280: 7ba3 3bbe 5cb6 863d 284c 553e 2928 923d
00000290: f26a 5d3e 3f8a 55bd e6b1 533d 9b0a 6b3e
000002a0: c88c 0bbe 6be9 84bd c340 8f3e db40 abbe
000002b0: 1c4e b9be de77 193d 019b 843e 4446 9abe
000002c0: cf68 7cbe 4449 233e 3b77 ea3e 1f77 9b3e
000002d0: 0db3 863e 5bec 2c3e a403 6fbd bbc0 b53e
000002e0: d06d 653e f1b7 19bf 338f 23bd f5b1 b63d
000002f0: 7842 dcbe 59e5 dd3e d2d6 78bd e793 52be
00000300: 2f49 0e3f c099 bbbe c265 75bd b7f8 a33d
00000310: 063f b2be 47e4 d7bc 7ba6 a4be e09b dd3e
00000320: 1b95 0b3f 9b8f 7bbe ea70 08bf 32b7 c63d
00000330: ed6c 013c f597 f1bd 86ab 0a3e 8e50 c2be
00000340: 6e5a 3bbe b039 823e 9f78 83be ca64 bf3e
00000350: 3734 ae3e 1fcb 993e 1141 9cbd f25a 26bd
00000360: caa5 70bc 0322 4abe 714e 12bf bab1 d13d
00000370: 88ef 003e 39fd 77be c5a6 8d3e f775 ef3e
00000380: 3f29 033d d7e6 8b3d 96c7 90be 6a8b 393e
00000390: 4e72 393e fd4d 55be ebfc f63d bdee 4bbd
000003a0: b594 9a3e c441 a9be a3fb 393b 9d8b 6e3e
000003b0: f406 3abc c7d6 b2be 44e5 ff3e 2791 1b3d
000003c0: 3ea1 ebbe 835d 543d 7be3 27bc 4eaf 853d
000003d0: c96a 333e 8136 4e3b f72a 7e3e 6168 52bd
000003e0: 6ea3 ba3d 28d2 393e f9d8 27be 2083 103e
000003f0: ba02 103e 2921 b0be 92ca a4be b5d6 2bbd
-0.132732 0.019190472 -0.2185349 -0.04428465 0.10161869 -0.23681365 0.30888492 -0.11323648
-0.17683601 -0.22550826 -0.16280818 0.17323115 0.07520053 -0.22993633 -0.30751142 0.0920535
-0.26815808 -0.15552804 0.082359724 0.3906423 0.3985456 -0.26732707 -0.2031351 0.2643286
0.07416068 -0.42125815 -0.34157223 -0.3267599 -0.29930028 -0.023119664 -0.15469272 -0.2818519
-0.1996429 -0.007988449 0.21358153 -0.1703491 0.21994308 0.21582693 -0.3912931 0.07908256
0.010095484 -0.130917 0.2690545 -0.23628195 0.24202341 -0.14939177 0.059456356 0.35173354
-0.25609392 0.11033642 -0.32431749 0.14875363 0.14622779 -0.09758576 -0.06658962 -0.018193722
0.09477618 0.17407963 -0.2673669 0.08992815 -0.1116709 -0.2657066 -0.33145496 -0.23457174
-0.32206744 -0.014724315 0.31963357 0.14041866 0.1998272 0.021844886 -0.057783216 -0.05620779
0.21128526 -0.053422388 -0.01681845 -0.21365131 -0.52811915 0.25362587 0.2822983 -0.2578591
0.28943884 0.22590567 -0.31161246 -0.12379734 0.3406422 0.22960117 -0.074384436 -0.0029811896
-0.38006166 0.076135695 0.4224271 0.23858014 -0.030730678 0.16989447 -0.073088944 -0.30596495
0.0430738 -0.23098877 -0.25274453 -0.06704595 -0.17041594 0.19224034 0.2382144 -0.47587302
-0.31429705 0.27613184 0.10205434 0.051037405 -0.07006509 0.10822082 -0.059747383 -0.5142694
0.18766214 0.31735682 -0.05264919 0.028856115 0.0423441 -0.1927726 -0.17901951 0.13674326
-0.26510444 -0.05026149 -0.415233 -0.13501298 -0.25176218 -0.25975087 -0.099957794 0.09083521
-0.1728377 0.04683104 -0.14127646 0.14835134 0.1615249 -0.41568896 0.062415067 0.054831076
-0.20009881 0.10911965 0.06742898 0.41669917 -0.2959211 -0.20034634 0.0021438198 -0.13267688
0.005057482 0.11223207 0.42632994 -0.10599358 -0.3095468 0.016994374 0.03317128 0.1684332
-0.35012588 -0.037436724 0.016816586 -0.31466997 -0.0897814 -0.17409365 -0.12243633 -0.03891173
-0.18324082 0.06577751 0.20829833 0.07136566 0.21622828 -0.052133795 0.05168333 0.22953264
-0.13627923 -0.064898334 0.27979097 -0.33447918 -0.36192405 0.03746783 0.2589951 -0.30131733
-0.24649356 0.15945917 0.4579409 0.3036432 0.2630848 0.16887037 -0.05835308 0.35498604
0.22405171 -0.600463 -0.039931487 0.08920661 -0.43019462 0.4333904 -0.060751744 -0.20564233
0.5558042 -0.3664074 -0.059911497 0.08006423 -0.34813708 -0.026353968 -0.32158265 0.43282986
0.5452439 -0.245665 -0.53297293 0.097029105 0.007899505 -0.11796562 0.13541993 -0.37952083
-0.18296215 0.25434637 -0.25677964 0.37381583 0.34024212 0.30037782 -0.07629598 -0.040614076
-0.014687965 -0.19739537 -0.5715094 0.10238977 0.12591374 -0.2421769 0.27666298 0.46769688
0.032021757 0.068311386 -0.28277272 0.18119588 0.1811001 -0.20830531 0.12059959 -0.049788225
0.3019158 -0.33057988 0.0028378747 0.23295446 -0.011354197 -0.34929487 0.49979603 0.037980225
-0.46021456 0.051846992 -0.010247107 0.06527577 0.17521204 0.0031465592 0.24821077 -0.051369075
0.09113203 0.18146574 -0.16391362 0.1411252 0.1406354 -0.344003 -0.321858 -0.041952807

bias f4 [32]
00000000: c09e 8e3e 7f20 94be bd59 13bc 5484 29be
00000010: eaa6 573e 1468 4c3d 3a13 8fbe 9bd6 8ebb
00000020: 0bc3 0d3c 7bec 44bc 95a7 623b 76ad ff3d
00000030: 1c89 b2bb 2139 e43e c57e ed3d 7c0b 1a3e
00000040: 07f3 85bb 0497 a5be bd2c e4be 798c 7d3b
00000050: 89cc 433b 5dcc d7bb 29d2 263b 4dca 59be
00000060: d695 cc35 622e 80bb 7fa2 debb a46d fcbe
00000070: de2f ef3b 4b2d cdbb 88f9 ef3a 3298 013d
0.27855492 -0.28931043 -0.008993563 -0.16554385 0.21059766 0.049903944 -0.27944356 -0.004359079
0.008652459 -0.012019272 0.003458475 0.12484257 -0.0054484736 0.44574836 0.11596445 0.15043443
-0.004087809 -0.32341778 -0.44565383 0.0038688465 0.002987655 -0.0065856413 0.0025454855 -0.21268578
1.5242792e-06 -0.0039117793 -0.0067942734 -0.493024 0.0072994074 -0.006261503 0.0018308619 0.031639285

weight f4 [64, 32, 3, 3]
00000000: 26dc 8a3e 4122 093e 547b 373d e878 2d3d
00000010: ce62 bdbd 8685 cb3d 8331 d73d 09ae f2bc
00000020: 4963 b43d 23f7 edbc 719a 6c3d f71f 193d
00000030: 2fea 2f3d 321c 69bd 6af0 52bd 1012 c9bc
00000040: 7a98 65bd 00fe 24b9 0243 c43e 0271 9fbd
00000050: 11d3 94bc e99e 8a3e 82fa 0dbf fcbb e2be
00000060: ed1e 3d3e ce08 0bbf f535 8b3e 7661 0bbd
00000070: ba00 ee3c 827c 11bd 14cd 2fbd 0820 de3b
00000080: 9cfa 35bd ff54 1d3d 0da9 023d 2caa 96bc
00000090: 72c5 fa3d f729 223d 6261 f53c f3b3 283c
000000a0: eecb 573d 11e5 44bd b17e 403d c7fa 29bd
000000b0: b17f e83c 97c2 8f3d 90ec b1bc ead2 303d
000000c0: cbdb 183e b8a2 abbd 3345 cabd 1245 9a3a
000000d0: fb72 cbbd e3e8 9dbd 90bf 5fbb ffab 2d3d
000000e0: 18e8 5ebd 10f1 cfbb 9143 443d f405 2ebd
000000f0: 408e 4ebd 864a a4bc f6af 95bc 0fa3 6b3e
00000100: 77b6 253e 5e37 eabe 9851 c73e 0a1e 923d
00000110: 4118 02bf b8b8 d8bd 2c10 72bf 427d 29bf
00000120: e24e 863e a8c6 313e 7b0f 8abe 9394 69be
00000130: 9952 bdbe a38a f0be 2a42 dfbd e1b0 c6be
00000140: 78ac b2bd 42f3 2b3e ffd0 3b3e b0b0 8e3c
00000150: 5cc7 c33e 9c0b 1d3d d4cb 14bf 89e9 803a
00000160: a34f 66be a5d8 0ebe fe6c f33d df3f fcbd
00000170: 3034 7abe 4671 ccbd 3da4 babd 608b 86be
00000180: 213d c3bd bdaf 4bbe 89ff a739 c6df 603e
00000190: 65a2 6f3e 10fd 45bd 7413 503e 8b29 62be
000001a0: e10f 9abe 78a2 b038 fe96 40be ccea 79be
000001b0: 7e45 623e 210c 5b3e e329 3fbc 9151 45be
000001c0: c9d6 b6be b5e2 44bf 3598 a3be 4e61 47bf
000001d0: e86e 09be f82f 32be 8d05 0c3b 6378 013e
000001e0: ad8c 0b3b f028 083d 799a da3d 244e d33d
000001f0: 9dbb f43d 8a04 923d e7fc 3dbd c7e8 973d
00000200: a287 873c 58a8 12be 7606 0dbe c299 a2bd
00000210: 7cc0 a6bc 763a 4abc 1fa1 813d af82 fe3d
00000220: 14a8 9a3d a143 a13d 2c0b 883d 118a 4fbe
00000230: 6dea bebd a850 953d bdf3 02bd 5541 7b3d
00000240: 1ba6 b33e 5939 bdbd effe 7c3e 611e e73e
00000250: fdfe 1ebf 876c 35be 4a9f f1bd 0011 1dbf
00000260: 1846 b03e c4ab 14bd 4038 39bc f2a2 9d3c
00000270: d619 c8bc 5afe b93c c45e 22bc c5f1 6d3d
00000280: 2052 3b3b b069 8ebc a5c8 383e 0b1c 85bc
00000290: 6959 09bc 1237 1f3d 5c68 e1bd df9f a33d
000002a0: d8a3 263d 9138 0abe 62e1 243d 410a 4f3e
000002b0: 3a29 66bd 6435 b0be bc55 313e f339 70be
000002c0: 6fc2 84be fdfa 693e 3497 90be 4f66 77be
000002d0: cee9 ba3d 3843 94bd 46ac 353b f9ec edbd
000002e0: a86c 9fbe 8b4e 26be 0f24 8fbe 56d4 9ebe
000002f0: e3fc fe3c 484b 2c3e 6f9e 8e3e de63 46bd
00000300: f8c4 143d 53ac 333e 7013 60bf 57f0 3cbe
00000310: 0970 d0be 188d abbe 757f d03e 5313 b83d
00000320: 8536 663e c0c3 da3e c920 74bd e5ad a4be
00000330: b021 7f3d 3e7e 0cbf 4dd8 1abe 1e29 223c
00000340: 84b8 02be 7399 93bd 79b5 7a3c 031f fe3c
00000350: 48f5 96bc 8d38 0ebe 111b 61be 4b27 ba3e
00000360: 0e60 d53e a9f0 4cbc c7bc 0a3e ac47 333e
00000370: e73d d1be b37e a8be 1552 873d 5673 03bf
00000380: 40f7 fc3c 6bea 853e d527 cb3e 9b9d 133f
00000390: de2e 543e 4dc4 5ebd 263c 8bbc f045 ddbd
000003a0: 70f9 973c faa7 ff3e 7b5a 003f 19d1 b43e
000003b0: 9f82 43be c8c2 683d b891 91be f204 a4bf
000003c0: 6b70 083e 1277 b8be cebf a1be 4fb2 a8bc
000003d0: b689 f0bc 5c26 04bd eaa9 6bbd f4ce 333d
000003e0: 066f 973d deb5 0fbd 7b26 123d 0c4c bc3d
000003f0: d9f5 d03e 714d 6ebe d230 0a3d 4874 2b3e
0.27121085 0.13391973 0.04479535 0.042351633 -0.09247361 0.09937577 0.105074905 -0.029624002
0.08808 -0.029048508 0.057764474 0.037384 0.042947944 -0.056911655 -0.051498808 -0.024544746
-0.056053616 -0.00015734881 0.38332373 -0.077852264 -0.01816705 0.27074364 -0.5546037 -0.44284046
0.18468828 -0.5431031 0.27189603 -0.034028493 0.02905308 -0.03551913 -0.042920187 0.0067787208
-0.044428453 0.038411137 0.0318995 -0.018391691 0.12244691 0.039590802 0.029953662 0.0102968095
0.052684717 -0.048070017 0.046995822 -0.041498926 0.0283812 0.07019537 -0.021719247 0.043169893
0.14927594 -0.083806455 -0.0987648 0.0011769852 -0.0993404 -0.07710435 -0.003414128 0.042400356
-0.05442056 -0.0063458756 0.047916 -0.042486146 -0.05042863 -0.020055067 -0.018272381 0.2301142
0.16182886 -0.45745367 0.3892944 0.07134636 -0.5081826 -0.10582107 -0.94555926 -0.66206753
0.26232058 0.17360938 -0.26964936 -0.22810583 -0.3697708 -0.4698077 -0.10901292 -0.38806823
-0.08724302 0.16792014 0.18341444 0.017418236 0.38238037 0.03834115 -0.5812352 0.0009835224
-0.22491316 -0.13949831 0.11886023 -0.1231687 -0.2443397 -0.09982543 -0.09113357 -0.2627821
-0.09533144 -0.19891258 0.0003204311 0.21960363 0.23401792 -0.048337042 0.20319921 -0.2208616
-0.3009024 8.422596e-05 -0.18807599 -0.24405974 0.22096822 0.21391346 -0.011667701 -0.19269396
-0.35710743 -0.7690843 -0.31952062 -0.7788285 -0.13421214 -0.17401111 0.0021365613 0.1264358
0.0021293566 0.033242166 0.106739946 0.103176385 0.11949847 0.07129772 -0.046383765 0.07417446
0.016544167 -0.1432203 -0.13771996 -0.07939483 -0.020355456 -0.01234304 0.063295595 0.1242727
0.075515896 0.07874227 0.06642756 -0.20267512 -0.09322057 0.072907746 -0.03197073 0.061341602
0.35087666 -0.09239454 0.24706624 0.45140365 -0.6210783 -0.17717181 -0.1179796 -0.61354065
0.34428477 -0.03629662 -0.011304915 0.019242737 -0.024426382 0.022704292 -0.009910289 0.058091898
0.0028582886 -0.01738438 0.1804529 -0.016248723 -0.008383133 0.03887088 -0.11006233 0.07989477
0.040683597 -0.13498141 0.040254004 0.20218755 -0.05619166 -0.34415734 0.17317861 -0.23459606
-0.2592959 0.2284965 -0.2824036 -0.24160121 0.09126626 -0.072393835 0.0027721091 -0.116174646
-0.31137586 -0.162409 -0.27957198 -0.31021374 0.031126445 0.16825593 0.2785525 -0.048435085
0.036320657 0.17546205 -0.8752966 -0.18451057 -0.40710476 -0.33506083 0.40722242 0.08988061
0.22481735 0.4272747 -0.05960158 -0.3216392 0.062287986 -0.5488013 -0.15121575 0.009897498
-0.127657 -0.072070025 0.0153020555 0.031020647 -0.018427506 -0.1388876 -0.21982981 0.36358103
0.41674846 -0.01250855 0.13548575 0.1750781 -0.4086754 -0.32909164 0.06607453 -0.51347864
0.030879617 0.2615541 0.39678827 0.5766236 0.20721003 -0.054386426 -0.016996454 -0.10804355
0.018551558 0.49932843 0.5013806 0.3531578 -0.19092797 0.056826383 -0.28431487 -1.2814009
0.13324134 -0.36028343 -0.31591648 -0.020592837 -0.02936254 -0.032263145 -0.05753509 0.043898538
0.07394223 -0.03508555 0.03568123 0.09194192 0.40812567 -0.23271729 0.033737965 0.16743577

bias f4 [64]
00000000: 9a2a 6b3d 7733 9abd 5a26 7b3d 24ac 99bc
00000010: c40f 4bbd 08e8 87bd be58 4ebd 5d0c 8b3c
00000020: 2910 72bd 7374 4ebd 7796 473c 6b00 d1bd
00000030: 5750 30bd fb25 aebc a3b5 a1bd b466 693c
00000040: 6626 0f3d f368 9bbc b088 b2bd 256d 02be
00000050: f461 8a3c f8e6 5dbd da04 c43d 6775 233e
00000060: 2aac e5bb 9b7c 873d e376 7dbd e3f9 f6bc
00000070: 5cb8 d6bc fec6 68bd 4c60 a03d d2ca 55bb
00000080: 01ee 69bd 7b9b 7cbd e2f4 a4bd 000e ef3d
00000090: 2f03 75bd 64cf 9d3d f58a 38bd 9d5b 53bd
000000a0: 5023 4d3d f002 80bc ccf5 0fbc 8b16 1abd
000000b0: 77fa 813c 6f92 4abd 09dd 55bd 899d c4bd
000000c0: d45d f33d 42d6 1ebe 7895 09bd c7c4 c8bc
000000d0: 1dda 80bd 5e46 95bd a721 6eba b823 1ebd
000000e0: d12a c93b fa91 68bd 3a25 29bd 762d 2cbc
000000f0: b0e2 5a3d 406b 3fbd 6439 bdbd af91 64bd
0.057413675 -0.075293474 0.06131587 -0.01875884 -0.049575582 -0.06636053 -0.0503776 0.016973669
-0.059097443 -0.050404023 0.01218187 -0.10205158 -0.043045368 -0.021258345 -0.078959726 0.014245678
0.03494873 -0.018970942 -0.08717477 -0.12736948 0.01689241 -0.054175347 0.09571238 0.15962754
-0.007009049 0.066155635 -0.061880957 -0.030148452 -0.026210956 -0.0568304 0.07830867 -0.003262211
-0.057111744 -0.061671715 -0.0805452 0.11672592 -0.05981749 0.07705572 -0.045054395 -0.05160104
0.050082505 -0.0156264 -0.00878663 -0.037619155 0.015866501 -0.049456056 -0.05221275 -0.0960036
0.11883131 -0.1551142 -0.03358981 -0.024507893 -0.06291602 -0.07288812 -0.0009083994 -0.038608283
0.0061391373 -0.05677984 -0.041295268 -0.010508886 0.053438842 -0.04673314 -0.09239462 -0.055802997

weight f4 [64, 3136]
00000000: ed0a 9d3d 05d8 133d 5300 e83c f4ba 903d
00000010: b0b7 823d c7f8 843d 0ee6 213e 1e94 323d
00000020: b8bc 053e e9d3 37be b0da 2dbe 10fc cfbc
00000030: 08b2 883d 3ed6 5d3c fd7b 333d 4af1 83bd
00000040: 479b 3abf 2cc9 2bbf 704a b8be a8a9 543e
00000050: cd86 be3d 3048 ce3d 8477 e2bd 3ae9 17bf
00000060: ec22 d6be ef48 65be 3247 6d3e f8ff 243d
00000070: 91b8 763d e468 fb3d 4ba9 04be 4975 66be
00000080: 15c4 2a3d 98b4 703d 5b83 60bd cb8a 473d
00000090: bd67 de3d 6246 513e d9c5 323e 100c 9f3d
000000a0: 1bfe 373d 3df5 273c 2755 f73d a3d0 e3bc
000000b0: bccf e0bc 47dd 65bd 592b bebd 32b8 a7bd
000000c0: 00bf 99bd fa60 99bb 2be9 4aba 2607 c13c
000000d0: e32e 193b 6403 23bc 9430 323b d5a9 d6bc
000000e0: 5afb 6fbc 5243 883c aeb5 ac3c 18b3 113d
000000f0: 3850 243d 913f 863c 42cd efbb 0832 d43c
00000100: 27fd c43c 2154 a637 4d73 f53c 9349 da3c
00000110: 9c5a c83b d551 e1bb 7d92 233c 7157 b63b
00000120: 104f 3d3c 8937 003c 632d 003c ac0c 7a3c
00000130: 3106 08bc d10e 0d3c 1064 173c 3823 f03c
00000140: 4038 8f3b e9ad 0b3d 9af2 163c 1352 bbbc
00000150: 98ad 1ebb 9cf9 fd3c 1354 633b 8e4d 9a3c
00000160: cb1f 16bc bb56 4fbc 5b1c 9dbc 12fc 593b
00000170: 2d14 15ba 561c b6bc 0a47 b2bc d64a e6bb
00000180: 39cd 03bd d04e 64bc 25c1 073d a68a 013d
00000190: 1059 d6bc 5f0d 11bc 62cc fb3c 6ccd 283d
000001a0: d369 333d 6ab0 21bd b210 eebd 81ba 52be
000001b0: 9d71 16be e8f9 ccbd 0f08 88bd 926f 5dbe
000001c0: b18d 81be dcb1 10be ed4f 60bd 4bec d33c
000001d0: 0386 64be ea79 03be 9af6 6cbd 1b6d cfbd
000001e0: 3839 f3bd 87c5 09be a7ef 513c 7e96 65be
000001f0: 0392 f9bc 498d 583e 71f8 0dbd ca51 80be
00000200: c85c 8ebe 05a3 f5bd efd0 10be 06f1 28be
00000210: 554c 033e 5e6f c2bb cceb 913c 7143 20bd
00000220: 21c5 ddbd 0079 98bd c676 1f3d 7448 913d
00000230: a677 b6bb d9bf 23bd 7fec 963c 8f85 32bc
00000240: f067 623d e9e5 f93c 9f46 c03d 43dc a23a
00000250: fcbb 263c 7ae7 c6bc 0023 60bd 7c5c d9bc
00000260: ced2 0d3c b3ac e739 6be7 203d 7cf9 33bc
00000270: 1679 14bd 2bbc 8339 4b03 eabd 7e94 9dbc
00000280: 5f72 b63b f28a 4c3b de2d 83bd 0b36 de3d
00000290: c3e5 173e bd93 553d 491d 78bd 659d 50bd
000002a0: 563b 1fbb e4a4 0cbd f386 753e d655 923e
000002b0: 2331 043e 7492 07bd 69b3 1cbd 2140 5fbd
000002c0: 344f e9bd 27cd 913d 4c47 333e 2751 a63d
000002d0: 1df7 48bc 87bf 9abc dfbf c13c 0c15 75bd
000002e0: 4341 77bd 0aa9 953c 12ad 23bc 1989 ba3c
000002f0: 7151 7e3c a1aa 913b 1e86 00bd b178 1abc
00000300: 9d54 1abd bba3 a1bc 4888 9cbb 7892 88bc
00000310: 6bca 003b b37f 343b ba4f 053b 004d 203c
00000320: bc58 523a 1bc1 8fbc b532 d0bb 5241 17bc
00000330: f6f1 a9ba 916a 88ba cc13 c1bc acf1 903c
00000340: 8d0f 403c fab3 4f3c b76f d23b 483b 43bb
00000350: 4fee e5bb f848 853c 6786 7ebb 7fd4 02bc
00000360: 9278 13bc bffa b43c a7a3 3dbc 5755 19bb
00000370: f878 93bc 811f 0c3c 7101 49bc 5b8e 713c
00000380: 43d4 2abc ecf2 3b3c 2bff 09bc a1a1 133c
00000390: b115 a0bc e39b 1fbb 1d44 373c 1db0 1c3c
000003a0: 5a19 07bb 0547 a5bc e0bd 78bc ebe2 8b3c
000003b0: 7cee 16bc 0ed5 02bc bf1b d4bb cd07 fcba
000003c0: d48d 9e3c 90f3 563c 6107 223c d279 ca3a
000003d0: 0a10 6a3c ab91 46bd fbff 8dbd 8419 06be
000003e0: 4f8a f9bd 6db0 b6bd 8193 37bd 652a c3bd
000003f0: 0e04 e6bd ff2c 6b3b 2056 0f3d 49f4 6c3d
0.076680996 0.036094684 0.028320467 0.070669085 0.06382692 0.06492763 0.15810415 0.043598287
0.13060272 -0.17951931 -0.16977954 -0.025388747 0.06674582 0.013539849 0.043819416 -0.064425066
-0.72893184 -0.6710384 -0.3599429 0.20767844 0.09303055 0.100723624 -0.11057952 -0.5934025
-0.41823518 -0.22391103 0.2317169 0.040283173 0.06023461 0.12275866 -0.12955205 -0.22505678
0.041690905 0.058765978 -0.05481277 0.048716348 0.1085963 0.20437005 0.17458285 0.077659726
0.04492007 0.01025134 0.120767884 -0.027809447 -0.027442805 -0.05611923 -0.09285612 -0.08189429
-0.075071335 -0.00468075 -0.0007740433 0.023562979 0.0023373894 -0.009949539 0.00271896 -0.02620403
-0.014647329 0.016633663 0.021082725 0.035571188 0.040115565 0.016387733 -0.00731817 0.025902763
0.024046494 1.9827918e-05 0.029962206 0.026646411 0.006114317 -0.00687621 0.009983656 0.005564623
0.0115544945 0.007825741 0.007823321 0.01526181 -0.008302257 0.00860949 0.009240165 0.029313669
0.004370719 0.0341014 0.009213114 -0.022866284 -0.0024212357 0.031002812 0.0034687563 0.01883581
-0.0091628535 -0.0126549555 -0.01917856 0.0033261818 -0.00056869054 -0.022230309 -0.02176239 -0.007027964
-0.032178137 -0.013934806 0.03314318 0.031626366 -0.026165515 -0.008853286 0.030737106 0.04121153
0.043802094 -0.039474882 -0.11624278 -0.20578958 -0.14691778 -0.10008603 -0.06642162 -0.21624592
-0.25303414 -0.14130348 -0.054763723 0.02586951 -0.22316746 -0.12839475 -0.057852365 -0.10128232
-0.11876148 -0.13454257 0.012813485 -0.2242069 -0.030465132 0.21147646 -0.03466076 -0.250624
-0.2780516 -0.11993984 -0.14142202 -0.16498193 0.12822087 -0.005933686 0.017812632 -0.039126817
-0.10828615 -0.07444954 0.03893163 0.070938975 -0.0055684624 -0.039977882 0.018423317 -0.010896101
0.055274904 0.030505138 0.0938847 0.0012425262 0.010176655 -0.024280299 -0.05472088 -0.026533358
0.008656217 0.00044188424 0.039283197 -0.010984775 -0.03624829 0.00025126463 -0.11426409 -0.019235846
0.0055678333 0.0031210748 -0.06405233 0.10850152 0.14833741 0.052142847 -0.060574804 -0.050931353
-0.0024296842 -0.03433694 0.2397726 0.28581113 0.12909369 -0.033098653 -0.038257036 -0.054504517
-0.1139206 0.07119208 0.17507666 0.08120947 -0.012265948 -0.018890155 0.023651062 -0.059834525
-0.060364973 0.01826908 -0.009989994 0.022770451 0.015522347 0.0044453894 -0.031377904 -0.009428189
-0.03767835 -0.019731393 -0.004776988 -0.016671404 0.00196519 0.0027541935 0.002034171 0.009783983
0.0008024087 -0.017548135 -0.006353701 -0.009231882 -0.0012965787 -0.0010407736 -0.02356901 0.017693363
0.011722458 0.012677187 0.006422009 -0.0029789973 -0.007016934 0.016270146 -0.0038837434 -0.007985233
-0.009000914 0.022092221 -0.011574662 -0.0023396814 -0.018002018 0.008552433 -0.01226841 0.014743413
-0.010426584 0.011471491 -0.008422653 0.009010703 -0.019541593 -0.002435439 0.011185673 0.009563473
-0.0020614476 -0.020175466 -0.0151819885 0.017075976 -0.009212133 -0.0079853665 -0.006473034 -0.0019228399
0.019354738 0.013119593 0.009889455 0.0015447682 0.014286051 -0.048478764 -0.0693359 -0.13095671
-0.121845834 -0.08920369 -0.044818405 -0.095295705 -0.11231242 0.0035884974 0.034994245 0.057850156

bias f4 [64]
00000000: c11b d63d ea78 ab3a a177 53bb e6f6 aebb
00000010: 01d1 68bb 72cb 7a3c 06bd 81bc eebb 733c
00000020: df2a 5abc 942f 1abb 6806 8f3d 243d a63d
00000030: 1a43 103d 87ac 92bb bd72 49ba df67 a2bb
00000040: e0ef 7abb 9619 ad3c bdb9 9cbc 5605 d43b
00000050: 9641 b4bb 7a97 2dbc 0706 acbc 13e9 a2bc
00000060: 9717 89bc cb95 a23b 6feb 053c b389 a83b
00000070: 4765 bd3b 7be6 11bc 2ccb fbba 7cba 4f3c
00000080: 4be8 bc3c 6988 8d3d 7a02 a8bb 592c 803d
00000090: a656 8c3d 34db 9dbb b332 9dbc c0d7 82bc
000000a0: 0ec7 27bc ab77 ceba bf9e 6abb da4f b63b
000000b0: df6f 883a 54b2 033c 0f56 c13d ca1d c2bb
000000c0: 7c70 e03d 273b f5bc d3cc 2fba de72 273c
000000d0: 98c3 833d bdf1 cdbb 43f6 afbb a8d4 c9bc
000000e0: d0fb 2ebc cd4b a8bb 7783 8cbc a115 813b
000000f0: df34 f23d 25fc 56bc 750a 2c3c d22d f23b
0.104545124 0.00130823 -0.003226735 -0.005339491 -0.0035524967 0.015307294 -0.015837204 0.014876349
-0.013315885 -0.0023526894 0.06983644 0.081171304 0.035220243 -0.0044761333 -0.0007684639 -0.00495623
-0.003828995 0.021130364 -0.019131536 0.0064703627 -0.0055009825 -0.010595197 -0.020998968 -0.01988653
-0.016734881 0.0049617044 0.0081738075 0.005143368 0.0057798955 -0.0089050485 -0.001921033 0.012678739
0.023059985 0.06910784 -0.0051272484 0.06258459 0.068524644 -0.004817391 -0.019189214 -0.015972018
-0.010240329 -0.0015752217 -0.0035800186 0.0055637183 0.0010409317 0.008038122 0.094402425 -0.0059239613
0.10958955 -0.029935433 -0.00067062414 0.010220258 0.06433791 -0.006284921 -0.005369933 -0.024637535
-0.010680154 -0.0051359893 -0.017152531 0.003939346 0.118264906 -0.013121639 0.01050054 0.007390716

weight f4 [6, 64]
00000000: 79c9 27bf ccda b7bc 09aa a4bd b81b 343d
00000010: 88a2 f13d 2cf1 84bb 2882 d2bd 6686 8ebf
00000020: da7c b43d 4d0e 20bd acf6 35bf 3f86 8cbf
00000030: c057 82bf 91f0 e53d a7fb 80bd 0eee 93bd
00000040: e397 8ebc 6fef 893e 2891 203d e9fd ce3d
00000050: e0a5 58bd a437 9fbd 7294 90bb 2e36 4dbc
00000060: 4374 6cbd 2d48 ed3d 6903 843d a407 c3bd
00000070: 4128 17bd 5ef8 70bf 5414 e83c 4ebe 983e
00000080: 7e41 84bf fe7f 953d 9f93 873d a968 173f
00000090: 0c75 e63d 9161 57bf a55b a63d 53d0 cdbc
000000a0: 4cb0 693d 0bce 8fbd 917f c13c fc9f 99bf
000000b0: 44c0 e23d 52e9 ec3d c231 15bf 04e5 a8bd
000000c0: bd15 3fbf c5af f03c 1e19 36bc b9a8 68bb
000000d0: 5f09 a03e bd66 91bd 4021 f3bd ecf1 35bc
000000e0: 6afe 453c 972a b3bd bd1b 423d c4da 29bd
000000f0: 8e28 10bf f2ef 703d 7fa9 6f3d 1868 b93d
00000100: 8b15 62bf db48 00bd e154 e43d e7f0 aabc
00000110: b4e0 923c b33c f9bd 0015 d83d 3477 42be
00000120: d683 a0bd 036f 48bd 0dc7 5ebf 9123 5ebf
00000130: 1877 993e e486 cabc ac83 50bd d951 c2bc
00000140: 64af 8dbd 3453 e13d bd82 2a3c 4529 5b3d
00000150: 028f cbbc 599e 243c f48b e1bc ef5f 9bbd
00000160: ea18 a33d 75c3 6ebd ce29 d1bd 06fe d33d
00000170: 960d 223d e8af 38be 8080 c63d a448 5b3e
00000180: 6adc 613c 10fa 86bf ce57 a93d f73c 28bf
00000190: dcf7 a13e f4f9 c2be 0249 61bd 6bfc e6bd
000001a0: ae9b 48bd 5c9f 853c 3e15 a9bd 003e ce3d
000001b0: f6ff 883d 813d f8bd a0ec 70bf 15f1 5c3d
000001c0: 8341 07bf e69f 473c 5b61 05bd a386 253d
000001d0: f8b5 5b3e 6741 d13d 9b44 fe3c 5a7c 06be
000001e0: 48fb d5bd 18a2 f3bd 07d8 d83d 4745 d9bd
000001f0: 8e56 a0bf 677b 1d3d 12e1 9fbc 8262 a33c
00000200: 7967 463e cade ef3c 4134 8dbd d1fc 2fbd
00000210: 47bd 6abd 0eb4 eabd 9372 5c3c 080c 5abe
00000220: 2b74 30bd 06da 1ebd ebd5 ae3c 4415 4fbf
00000230: 9e1d cdbe bed6 b3bd 6eb2 edbd ed19 773d
00000240: 84e6 9abc 24e7 5b3e c4be b8bd 1b9f 2939
00000250: d9f5 67bd 3794 aebd b2bc c5bd d92f 453c
00000260: 5835 15bd 3e17 073d df3f 963d 667a bbbd
00000270: 266b 833d b188 00bb 9ae1 b13c d297 90bd
00000280: 1037 dfbb 4ced 933e 3481 0bbd 0ec9 393f
00000290: 6b29 e5bc a426 02bf 2c04 05bc 3b93 55bc
000002a0: d6ab 3e3d 2d6f a03d a466 733d 893e 65be
000002b0: 8822 083d e254 d3bd e24b fdbd 781e 92bd
000002c0: 8535 45bd c730 623d b7ab cebd a780 bb3d
000002d0: e2c6 493e 6f5a c5bd 94f5 e83d 7357 c8bb
000002e0: fc76 623d ef48 e93d 5dc7 14bd a237 8dbd
000002f0: 9462 dfbd a97a a6bd 4bee d73d 72c9 57bd
00000300: 2bdb 76bd cf96 4bbd 1cfe e0bd e4bd 773c
00000310: 0467 b4bd d082 723c 26ed fc3c 4621 983e
00000320: d8fe ac3b 3f45 b73d 13f2 d7bd 40cc 00bd
00000330: e8c4 563e cf95 6f3c 52ab dfbd 26bc 9fbb
00000340: e747 dcbd 5d1e cb3d b80e e53c e466 4f3d
00000350: d289 dfbd 9efb 2f3c ec72 15bd 758f 69bd
00000360: 9d1d e33c d39f 9c3d 1b6e a2bc b53e d4bd
00000370: 165d 4f3d 4eb2 343d c9af e1bd 7aa1 5c3e
00000380: 9a1f c73d 159c 2ebf da1d b93d 41d5 b7bf
00000390: dd9e 003e e328 313e ec58 e63c 203a 3f3d
000003a0: 8b5b 62bb 13c2 70bd 2efa aa3d 5778 723e
000003b0: 42b9 9ebd f62c edbd f401 5ebf acd8 9a3d
000003c0: 84fd af3d 39a4 ee3d 5664 89bd dcc5 5dbd
000003d0: e95b c8bd f7f8 04be 017a eb3c 843a 593a
000003e0: 2587 a5bd 4a07 e53d acd9 55bd 889d 483d
000003f0: ffde dbbd e644 40bd 83dc 513d 49b7 523d
-0.655418 -0.022443198 -0.08040244 0.043971747 0.117985785 -0.0040570702 -0.102787316 -1.1134765
0.08812876 -0.03907614 -0.71079516 -1.0978469 -1.0183029 0.11227525 -0.06297999 -0.0722314
-0.01740641 0.26940486 0.03920093 0.10107023 -0.052892566 -0.077742845 -0.0044122273 -0.0125251245
-0.057728063 0.11586032 0.06445963 -0.09522942 -0.036903623 -0.9412898 0.028330006 0.2983269
-1.0332487 0.07299803 0.06619953 0.59144074 0.11252794 -0.8413325 0.081229486 -0.02512375
0.057052895 -0.070217215 0.023620399 -1.2001948 0.11071828 0.1156794 -0.5827905 -0.08246806
-0.74642545 0.029380688 -0.011114387 -0.0035500957 0.3125715 -0.07099674 -0.11871576 -0.011105042
0.012084583 -0.08748358 0.047389735 -0.041468397 -0.5631188 0.05882258 0.058511253 0.090530574
-0.8831412 -0.03131948 0.11149002 -0.020866824 0.017929412 -0.121697806 0.105508804 -0.18990785
-0.07837646 -0.048933994 -0.8702248 -0.8677302 0.29973674 -0.024722524 -0.050906822 -0.023720669
-0.06918219 0.11002198 0.010407147 0.053506155 -0.024848465 0.010047519 -0.027532555 -0.07586657
0.07963736 -0.05829187 -0.10213052 0.103511855 0.039563738 -0.18035853 0.09692478 0.21414429
0.013785461 -1.0545063 0.082687005 -0.65718025 0.31634414 -0.38081324 -0.055001266 -0.11278614
-0.048976593 0.01631134 -0.08256005 0.10070419 0.06689446 -0.12121106 -0.9411106 0.05394085
-0.5283434 0.012184119 -0.03256355 0.040411603 0.21456134 0.10217553 0.031038573 -0.13133374
-0.10448319 -0.11896151 0.10588079 -0.10608917 -1.2526414 0.038447764 -0.019516502 0.019944433
0.19375409 0.029281039 -0.06894732 -0.042965714 -0.057309415 -0.11460124 0.013455051 -0.21293652
-0.043079536 -0.038782142 0.021342238 -0.80891824 -0.4006166 -0.08781193 -0.116062984 0.06032746
-0.018908747 0.21474892 -0.09020761 0.00016176367 -0.056630943 -0.085243635 -0.096551314 0.012035334
-0.036427826 0.03298115 0.07336401 -0.09154205 0.06416921 -0.0019612724 0.02171402 -0.070602074
-0.006811984 0.2889198 -0.034058765 0.7257241 -0.027973851 -0.5084021 -0.00811867 -0.013035591
0.046550594 0.07833705 0.059424058 -0.22387137 0.033236057 -0.103189245 -0.12367989 -0.07134718
-0.048146743 0.0552223 -0.10091346 0.09155398 0.19704774 -0.096363895 0.11374965 -0.0061139404
0.055289254 0.11390864 -0.03632294 -0.06895377 -0.10907474 -0.08128864 0.10543498 -0.052682348
-0.06026761 -0.04970437 -0.109859675 0.015120957 -0.08808711 0.014801696 0.0308748 0.29712886
0.005279403 0.089487545 -0.10544219 -0.031444788 0.20973551 0.0146231195 -0.10921349 -0.004874724
-0.10755902 0.09917901 0.02796112 0.050635234 -0.10914959 0.010741143 -0.03648655 -0.057021577
0.027724082 0.076476716 -0.019827893 -0.10363523 0.050625883 0.044115357 -0.110198565 0.21545973
0.097228244 -0.6820691 0.09038897 -1.4361955 0.12560602 0.17300753 0.028118573 0.04668629
-0.0034539427 -0.058778834 0.08348499 0.23678719 -0.07750179 -0.11580841 -0.8672173 0.07560858
0.08593276 0.11652417 -0.06708591 -0.05414377 -0.097831555 -0.12985598 0.0287447 0.00082866126
-0.080824174 0.11183031 -0.05220954 0.04897836 -0.107358925 -0.046940707 0.051235687 0.051444326

bias f4 [6]
00000000: d5c4 853d 5ee2 47bd 73b0 e53d 6f16 a9bd
00000010: f1c6 dabd 7500 43be
0.06531683 -0.048799865 0.11215296 -0.08256232 -0.10682476 -0.19043143
